name: "res101_ade20k"
layer {
  name: "data"
  type: "ImageSegData"
  top: "data"
  top: "label"
  #top: "data_dim"
  include {
    phase: TRAIN
  }
  transform_param {
    mirror: true
    crop_size: 337
    mean_value: 109.4958
    mean_value: 118.6984
    mean_value: 124.6874
    # scale_factors: 0.5
    # scale_factors: 0.75
    # scale_factors: 1
    # scale_factors: 1.25
    # scale_factors: 1.5
    # scale_factors: 1.75
    scale_factors: 0.62
    scale_factors: 1.75
  }
  image_data_param {
    root_folder: "/temp/xiaojie/ade20k/"
    source: "/home/jinxiaojie/dataset/ade20k/trainval.txt"
    batch_size: 1
    shuffle: true
    label_type: PIXEL
    future_scale: 8
  }
}

layer {
  name: "data"
  type: "ImageSegData"
  top: "data"
  top: "label"
  top: "data_dim"
  include { phase: TEST }
  image_data_param {
    root_folder: "/home/jinxiaojie/dataset/ade20k/"
    source: "/home/jinxiaojie/dataset/ade20k/val_s.txt"
    label_type: PIXEL
    batch_size: 1
    shuffle: false
    future_scale: 8
    hei: 450
    wid: 450
  }
  transform_param {
    mean_value: 109.4958
    mean_value: 118.6984
    mean_value: 124.6874
    scale_factors: 1
    mirror: false
  }
}

###################### resolution 1 #####################
layer {
        bottom: "data"
	top: "conv1"
	name: "conv1"
	type: "Convolution"
	param {
               name: "conv1_0"
               lr_mult: 1
               decay_mult: 1
        }
        convolution_param {
		num_output: 64
		kernel_size: 7
		pad: 3
		stride: 2
		bias_term: false
	}
}

layer {
	bottom: "conv1"
	top: "conv1"
	name: "bn_conv1"
	type: "BatchNorm"
	batch_norm_param {
		use_global_stats: true
	}
	param {
	      name: "bn_conv1_0"
	      lr_mult: 0
	}
	param {
		name: "bn_conv1_1"
	      lr_mult: 0
        }
	param {
		name: "bn_conv1_2"
	      lr_mult: 0
        }
}

layer {
	bottom: "conv1"
	top: "conv1"
	name: "scale_conv1"
	type: "Scale"
	scale_param {
		bias_term: true
	}
	param {
		name: "scale_conv1_0"
	      lr_mult: 0
	}
	param {
		name: "scale_conv1_1"
	      lr_mult: 0
	}
}

layer {
	top: "conv1"
	bottom: "conv1"
	name: "conv1_relu"
	type: "ReLU"
}

layer {
	bottom: "conv1"
	top: "pool1"
	name: "pool1"
	type: "Pooling"
	pooling_param {
		kernel_size: 3
		stride: 2
		pad: 1
		pool: MAX
	}
}

layer {
	bottom: "pool1"
	top: "res2a_branch1"
	name: "res2a_branch1"
	type: "Convolution"
	param {
		name: "res2a_branch1_0"
               lr_mult: 1
               decay_mult: 1
        }
        convolution_param {
		num_output: 256
		kernel_size: 1
		pad: 0
		stride: 1
		bias_term: false
	}
}

layer {
	bottom: "res2a_branch1"
	top: "res2a_branch1"
	name: "bn2a_branch1"
	type: "BatchNorm"
	batch_norm_param {
		use_global_stats: true
	}
	param {
		name: "bn2a_branch1_0"
	      lr_mult: 0
	}
	param {
		name: "bn2a_branch1_1"
	      lr_mult: 0
        }
	param {
		name: "bn2a_branch1_2"
	      lr_mult: 0
        }
}

layer {
	bottom: "res2a_branch1"
	top: "res2a_branch1"
	name: "scale2a_branch1"
	type: "Scale"
	scale_param {
		bias_term: true
	}
	param {
		name: "scale2a_branch1_0"
	      lr_mult: 0
	}
	param {
		name: "scale2a_branch1_1"
	      lr_mult: 0
	}
}

layer {
	bottom: "pool1"
	top: "res2a_branch2a"
	name: "res2a_branch2a"
	type: "Convolution"
	param {
		name: "res2a_branch2a_0"
               lr_mult: 1
               decay_mult: 1
        }
        convolution_param {
		num_output: 64
		kernel_size: 1
		pad: 0
		stride: 1
		bias_term: false
	}
}

layer {
	bottom: "res2a_branch2a"
	top: "res2a_branch2a"
	name: "bn2a_branch2a"
	type: "BatchNorm"
	batch_norm_param {
		use_global_stats: true
	}
	param {
		name: "bn2a_branch2a_0"
	      lr_mult: 0
	}
	param {
		name: "bn2a_branch2a_1"
	      lr_mult: 0
        }
	param {
		name: "bn2a_branch2a_2"
	      lr_mult: 0
        }
}

layer {
	bottom: "res2a_branch2a"
	top: "res2a_branch2a"
	name: "scale2a_branch2a"
	type: "Scale"
	scale_param {
		bias_term: true
	}
	param {
		name: "scale2a_branch2a_0"
	      lr_mult: 0
	}
	param {
		name: "scale2a_branch2a_1"
	      lr_mult: 0
	}
}

layer {
	top: "res2a_branch2a"
	bottom: "res2a_branch2a"
	name: "res2a_branch2a_relu"
	type: "ReLU"
}

layer {
	bottom: "res2a_branch2a"
	top: "res2a_branch2b"
	name: "res2a_branch2b"
	type: "Convolution"
	param {
		name: "res2a_branch2b_0"
               lr_mult: 1
               decay_mult: 1
        }
        convolution_param {
		num_output: 64
		kernel_size: 3
		pad: 1
		stride: 1
		bias_term: false
	}
}

layer {
	bottom: "res2a_branch2b"
	top: "res2a_branch2b"
	name: "bn2a_branch2b"
	type: "BatchNorm"
	batch_norm_param {
		use_global_stats: true
	}
	param {
		name: "bn2a_branch2b_0"
	      lr_mult: 0
	}
	param {
		name: "bn2a_branch2b_1"
	      lr_mult: 0
        }
	param {
		name: "bn2a_branch2b_2"
	      lr_mult: 0
        }
}

layer {
	bottom: "res2a_branch2b"
	top: "res2a_branch2b"
	name: "scale2a_branch2b"
	type: "Scale"
	scale_param {
		bias_term: true
	}
	param {
		name: "scale2a_branch2b_0"
	      lr_mult: 0
	}
	param {
		name: "scale2a_branch2b_1"
	      lr_mult: 0
	}
}

layer {
	top: "res2a_branch2b"
	bottom: "res2a_branch2b"
	name: "res2a_branch2b_relu"
	type: "ReLU"
}

layer {
	bottom: "res2a_branch2b"
	top: "res2a_branch2c"
	name: "res2a_branch2c"
	type: "Convolution"
	param {
		name: "res2a_branch2c_0"
               lr_mult: 1
               decay_mult: 1
        }
        convolution_param {
		num_output: 256
		kernel_size: 1
		pad: 0
		stride: 1
		bias_term: false
	}
}

layer {
	bottom: "res2a_branch2c"
	top: "res2a_branch2c"
	name: "bn2a_branch2c"
	type: "BatchNorm"
	batch_norm_param {
		use_global_stats: true
	}
	param {
		name: "bn2a_branch2c_0"
	      lr_mult: 0
	}
	param {
		name: "bn2a_branch2c_1"
	      lr_mult: 0
        }
	param {
		name: "bn2a_branch2c_2"
	      lr_mult: 0
        }
}

layer {
	bottom: "res2a_branch2c"
	top: "res2a_branch2c"
	name: "scale2a_branch2c"
	type: "Scale"
	scale_param {
		bias_term: true
	}
	param {
		name: "scale2a_branch2c_0"
	      lr_mult: 0
	}
	param {
		name: "scale2a_branch2c_1"
	      lr_mult: 0
	}
}

layer {
	bottom: "res2a_branch1"
	bottom: "res2a_branch2c"
	top: "res2a"
	name: "res2a"
	type: "Eltwise"
}

layer {
	bottom: "res2a"
	top: "res2a"
	name: "res2a_relu"
	type: "ReLU"
}

layer {
	bottom: "res2a"
	top: "res2b_branch2a"
	name: "res2b_branch2a"
	type: "Convolution"
	param {
		name: "res2b_branch2a_0"
               lr_mult: 1
               decay_mult: 1
        }
        convolution_param {
		num_output: 64
		kernel_size: 1
		pad: 0
		stride: 1
		bias_term: false
	}
}

layer {
	bottom: "res2b_branch2a"
	top: "res2b_branch2a"
	name: "bn2b_branch2a"
	type: "BatchNorm"
	batch_norm_param {
		use_global_stats: true
	}
	param {
		name: "bn2b_branch2a_0"
	      lr_mult: 0
	}
	param {
		name: "bn2b_branch2a_1"
	      lr_mult: 0
        }
	param {
		name: "bn2b_branch2a_2"
	      lr_mult: 0
        }
}

layer {
	bottom: "res2b_branch2a"
	top: "res2b_branch2a"
	name: "scale2b_branch2a"
	type: "Scale"
	scale_param {
		bias_term: true
	}
	param {
		name: "scale2b_branch2a_0"
	      lr_mult: 0
	}
	param {
		name: "scale2b_branch2a_1"
	      lr_mult: 0
	}
}

layer {
	top: "res2b_branch2a"
	bottom: "res2b_branch2a"
	name: "res2b_branch2a_relu"
	type: "ReLU"
}

layer {
	bottom: "res2b_branch2a"
	top: "res2b_branch2b"
	name: "res2b_branch2b"
	type: "Convolution"
	param {
		name: "res2b_branch2b_0"
               lr_mult: 1
               decay_mult: 1
        }
        convolution_param {
		num_output: 64
		kernel_size: 3
		pad: 1
		stride: 1
		bias_term: false
	}
}

layer {
	bottom: "res2b_branch2b"
	top: "res2b_branch2b"
	name: "bn2b_branch2b"
	type: "BatchNorm"
	batch_norm_param {
		use_global_stats: true
	}
	param {
		name: "bn2b_branch2b_0"
	      lr_mult: 0
	}
	param {
		name: "bn2b_branch2b_1"
	      lr_mult: 0
        }
	param {
		name: "bn2b_branch2b_2"
	      lr_mult: 0
        }
}

layer {
	bottom: "res2b_branch2b"
	top: "res2b_branch2b"
	name: "scale2b_branch2b"
	type: "Scale"
	scale_param {
		bias_term: true
	}
	param {
		name: "scale2b_branch2b_0"
	      lr_mult: 0
	}
	param {
		name: "scale2b_branch2b_1"
	      lr_mult: 0
	}
}

layer {
	top: "res2b_branch2b"
	bottom: "res2b_branch2b"
	name: "res2b_branch2b_relu"
	type: "ReLU"
}

layer {
	bottom: "res2b_branch2b"
	top: "res2b_branch2c"
	name: "res2b_branch2c"
	type: "Convolution"
	param {
		name: "res2b_branch2c_0"
               lr_mult: 1
               decay_mult: 1
        }
        convolution_param {
		num_output: 256
		kernel_size: 1
		pad: 0
		stride: 1
		bias_term: false
	}
}

layer {
	bottom: "res2b_branch2c"
	top: "res2b_branch2c"
	name: "bn2b_branch2c"
	type: "BatchNorm"
	batch_norm_param {
		use_global_stats: true
	}
	param {
		name: "bn2b_branch2c_0"
	      lr_mult: 0
	}
	param {
		name: "bn2b_branch2c_1"
	      lr_mult: 0
        }
	param {
		name: "bn2b_branch2c_2"
	      lr_mult: 0
        }
}

layer {
	bottom: "res2b_branch2c"
	top: "res2b_branch2c"
	name: "scale2b_branch2c"
	type: "Scale"
	scale_param {
		bias_term: true
	}
	param {
		name: "scale2b_branch2c_0"
	      lr_mult: 0
	}
	param {
		name: "scale2b_branch2c_1"
	      lr_mult: 0
	}
}

layer {
	bottom: "res2a"
	bottom: "res2b_branch2c"
	top: "res2b"
	name: "res2b"
	type: "Eltwise"
}

layer {
	bottom: "res2b"
	top: "res2b"
	name: "res2b_relu"
	type: "ReLU"
}

layer {
	bottom: "res2b"
	top: "res2c_branch2a"
	name: "res2c_branch2a"
	type: "Convolution"
	param {
              name: "res2c_branch2a_0"
              lr_mult: 1
              decay_mult: 1
        }
        convolution_param {
		num_output: 64
		kernel_size: 1
		pad: 0
		stride: 1
		bias_term: false
	}
}

layer {
	bottom: "res2c_branch2a"
	top: "res2c_branch2a"
	name: "bn2c_branch2a"
	type: "BatchNorm"
	batch_norm_param {
		use_global_stats: true
	}
	param {
		name: "bn2c_branch2a_0"
	      lr_mult: 0
	}
	param {
		name: "bn2c_branch2a_1"
	      lr_mult: 0
        }
	param {
		name: "bn2c_branch2a_2"
	      lr_mult: 0
        }
}

layer {
	bottom: "res2c_branch2a"
	top: "res2c_branch2a"
	name: "scale2c_branch2a"
	type: "Scale"
	scale_param {
		bias_term: true
	}
	param {
		name: "scale2c_branch2a_0"
	      lr_mult: 0
	}
	param {
		name: "scale2c_branch2a_1"
	      lr_mult: 0
	}
}

layer {
	top: "res2c_branch2a"
	bottom: "res2c_branch2a"
	name: "res2c_branch2a_relu"
	type: "ReLU"
}

layer {
	bottom: "res2c_branch2a"
	top: "res2c_branch2b"
	name: "res2c_branch2b"
	type: "Convolution"
	param {
		name: "res2c_branch2b_0"
               lr_mult: 1
               decay_mult: 1
        }
        convolution_param {
		num_output: 64
		kernel_size: 3
		pad: 1
		stride: 1
		bias_term: false
	}
}

layer {
	bottom: "res2c_branch2b"
	top: "res2c_branch2b"
	name: "bn2c_branch2b"
	type: "BatchNorm"
	batch_norm_param {
		use_global_stats: true
	}
	param {
		name: "bn2c_branch2b_0"
	      lr_mult: 0
	}
	param {
		name: "bn2c_branch2b_1"
	      lr_mult: 0
        }
	param {
		name: "bn2c_branch2b_2"
	      lr_mult: 0
        }
}

layer {
	bottom: "res2c_branch2b"
	top: "res2c_branch2b"
	name: "scale2c_branch2b"
	type: "Scale"
	scale_param {
		bias_term: true
	}
	param {
		name: "scale2c_branch2b_0"
	      lr_mult: 0
	}
	param {
		name: "scale2c_branch2b_1"
	      lr_mult: 0
	}
}

layer {
	top: "res2c_branch2b"
	bottom: "res2c_branch2b"
	name: "res2c_branch2b_relu"
	type: "ReLU"
}

layer {
	bottom: "res2c_branch2b"
	top: "res2c_branch2c"
	name: "res2c_branch2c"
	type: "Convolution"
	param {
		name: "res2c_branch2c_0"
               lr_mult: 1
               decay_mult: 1
        }
        convolution_param {
		num_output: 256
		kernel_size: 1
		pad: 0
		stride: 1
		bias_term: false
	}
}

layer {
	bottom: "res2c_branch2c"
	top: "res2c_branch2c"
	name: "bn2c_branch2c"
	type: "BatchNorm"
	batch_norm_param {
		use_global_stats: true
	}
	param {
		name: "bn2c_branch2c_0"
	      lr_mult: 0
	}
	param {
		name: "bn2c_branch2c_1"
	      lr_mult: 0
        }
	param {
		name: "bn2c_branch2c_2"
	      lr_mult: 0
        }
}

layer {
	bottom: "res2c_branch2c"
	top: "res2c_branch2c"
	name: "scale2c_branch2c"
	type: "Scale"
	scale_param {
		bias_term: true
	}
	param {
		name: "scale2c_branch2c_0"
	      lr_mult: 0
	}
	param {
		name: "scale2c_branch2c_1"
	      lr_mult: 0
	}
}

layer {
	bottom: "res2b"
	bottom: "res2c_branch2c"
	top: "res2c"
	name: "res2c"
	type: "Eltwise"
}

layer {
	bottom: "res2c"
	top: "res2c"
	name: "res2c_relu"
	type: "ReLU"
}
##################### End of the conv2_x ########################

layer {
	bottom: "res2c"
	top: "res3a_branch1"
	name: "res3a_branch1"
	type: "Convolution"
	param {
		name: "res3a_branch1_0"
               lr_mult: 1
               decay_mult: 1
        }
        convolution_param {
		num_output: 512
		kernel_size: 1
		pad: 0
		stride: 2
		bias_term: false
	}
}

layer {
	bottom: "res3a_branch1"
	top: "res3a_branch1"
	name: "bn3a_branch1"
	type: "BatchNorm"
	batch_norm_param {
		use_global_stats: true
	}
	param {
		name: "bn3a_branch1_0"
	      lr_mult: 0
	}
	param {
		name: "bn3a_branch1_1"
	      lr_mult: 0
        }
	param {
		name: "bn3a_branch1_2"
	      lr_mult: 0
        }
}

layer {
	bottom: "res3a_branch1"
	top: "res3a_branch1"
	name: "scale3a_branch1"
	type: "Scale"
	scale_param {
		bias_term: true
	}
	param {
		name: "scale3a_branch1_0"
	      lr_mult: 0
	}
	param {
		name: "scale3a_branch1_1"
	      lr_mult: 0
	}
}

layer {
	bottom: "res2c"
	top: "res3a_branch2a"
	name: "res3a_branch2a"
	type: "Convolution"
	param {
		name: "res3a_branch2a_0"
               lr_mult: 1
               decay_mult: 1
        }
        convolution_param {
		num_output: 128
		kernel_size: 1
		pad: 0
		stride: 2
		bias_term: false
	}
}

layer {
	bottom: "res3a_branch2a"
	top: "res3a_branch2a"
	name: "bn3a_branch2a"
	type: "BatchNorm"
	batch_norm_param {
		use_global_stats: true
	}
	param {
		name: "bn3a_branch2a_0"
	      lr_mult: 0
	}
	param {
		name: "bn3a_branch2a_1"
	      lr_mult: 0
        }
	param {
		name: "bn3a_branch2a_2"
	      lr_mult: 0
        }
}

layer {
	bottom: "res3a_branch2a"
	top: "res3a_branch2a"
	name: "scale3a_branch2a"
	type: "Scale"
	scale_param {
		bias_term: true
	}
	param {
		name: "scale3a_branch2a_0"
	      lr_mult: 0
	}
	param {
		name: "scale3a_branch2a_1"
	      lr_mult: 0
	}
}

layer {
	top: "res3a_branch2a"
	bottom: "res3a_branch2a"
	name: "res3a_branch2a_relu"
	type: "ReLU"
}

layer {
	bottom: "res3a_branch2a"
	top: "res3a_branch2b"
	name: "res3a_branch2b"
	type: "Convolution"
	param {
		name: "res3a_branch2b_0"
               lr_mult: 1
               decay_mult: 1
        }
        convolution_param {
		num_output: 128
		kernel_size: 3
		pad: 1
		stride: 1
		bias_term: false
	}
}

layer {
	bottom: "res3a_branch2b"
	top: "res3a_branch2b"
	name: "bn3a_branch2b"
	type: "BatchNorm"
	batch_norm_param {
		use_global_stats: true
	}
	param {
		name: "bn3a_branch2b_0"
	      lr_mult: 0
	}
	param {
		name: "bn3a_branch2b_1"
	      lr_mult: 0
        }
	param {
		name: "bn3a_branch2b_2"
	      lr_mult: 0
        }
}

layer {
	bottom: "res3a_branch2b"
	top: "res3a_branch2b"
	name: "scale3a_branch2b"
	type: "Scale"
	scale_param {
		bias_term: true
	}
	param {
		name: "scale3a_branch2b_0"
	      lr_mult: 0
	}
	param {
		name: "scale3a_branch2b_1"
	      lr_mult: 0
	}
}

layer {
	top: "res3a_branch2b"
	bottom: "res3a_branch2b"
	name: "res3a_branch2b_relu"
	type: "ReLU"
}

layer {
	bottom: "res3a_branch2b"
	top: "res3a_branch2c"
	name: "res3a_branch2c"
	type: "Convolution"
	param {
		name: "res3a_branch2c_0"
               lr_mult: 1
               decay_mult: 1
        }
        convolution_param {
		num_output: 512
		kernel_size: 1
		pad: 0
		stride: 1
		bias_term: false
	}
}

layer {
	bottom: "res3a_branch2c"
	top: "res3a_branch2c"
	name: "bn3a_branch2c"
	type: "BatchNorm"
	batch_norm_param {
		use_global_stats: true
	}
	param {
		name: "bn3a_branch2c_0"
	      lr_mult: 0
	}
	param {
		name: "bn3a_branch2c_1"
	      lr_mult: 0
        }
	param {
		name: "bn3a_branch2c_2"
	      lr_mult: 0
        }
}

layer {
	bottom: "res3a_branch2c"
	top: "res3a_branch2c"
	name: "scale3a_branch2c"
	type: "Scale"
	scale_param {
		bias_term: true
	}
	param {
		name: "scale3a_branch2c_0"
	      lr_mult: 0
	}
	param {
		name: "scale3a_branch2c_1"
	      lr_mult: 0
	}
}

layer {
	bottom: "res3a_branch1"
	bottom: "res3a_branch2c"
	top: "res3a"
	name: "res3a"
	type: "Eltwise"
}

layer {
	bottom: "res3a"
	top: "res3a"
	name: "res3a_relu"
	type: "ReLU"
}

layer {
	bottom: "res3a"
	top: "res3b1_branch2a"
	name: "res3b1_branch2a"
	type: "Convolution"
	param {
		name: "res3b1_branch2a_0"
               lr_mult: 1
               decay_mult: 1
        }
        convolution_param {
		num_output: 128
		kernel_size: 1
		pad: 0
		stride: 1
		bias_term: false
	}
}

layer {
	bottom: "res3b1_branch2a"
	top: "res3b1_branch2a"
	name: "bn3b1_branch2a"
	type: "BatchNorm"
	batch_norm_param {
		use_global_stats: true
	}
	param {
		name: "bn3b1_branch2a_0"
	      lr_mult: 0
	}
	param {
		name: "bn3b1_branch2a_1"
	      lr_mult: 0
        }
	param {
		name: "bn3b1_branch2a_2"
	      lr_mult: 0
        }
}

layer {
	bottom: "res3b1_branch2a"
	top: "res3b1_branch2a"
	name: "scale3b1_branch2a"
	type: "Scale"
	scale_param {
		bias_term: true
	}
	param {
		name: "scale3b1_branch2a_0"
	      lr_mult: 0
	}
	param {
		name: "scale3b1_branch2a_1"
	      lr_mult: 0
	}
}

layer {
	top: "res3b1_branch2a"
	bottom: "res3b1_branch2a"
	name: "res3b1_branch2a_relu"
	type: "ReLU"
}

layer {
	bottom: "res3b1_branch2a"
	top: "res3b1_branch2b"
	name: "res3b1_branch2b"
	type: "Convolution"
	param {
		name: "res3b1_branch2b_0"
               lr_mult: 1
               decay_mult: 1
        }
        convolution_param {
		num_output: 128
		kernel_size: 3
		pad: 1
		stride: 1
		bias_term: false
	}
}

layer {
	bottom: "res3b1_branch2b"
	top: "res3b1_branch2b"
	name: "bn3b1_branch2b"
	type: "BatchNorm"
	batch_norm_param {
		use_global_stats: true
	}
	param {
		name: "bn3b1_branch2b_0"
	      lr_mult: 0
	}
	param {
		name: "bn3b1_branch2b_1"
	      lr_mult: 0
        }
	param {
		name: "bn3b1_branch2b_2"
	      lr_mult: 0
        }
}

layer {
	bottom: "res3b1_branch2b"
	top: "res3b1_branch2b"
	name: "scale3b1_branch2b"
	type: "Scale"
	scale_param {
		bias_term: true
	}
	param {
		name: "scale3b1_branch2b_0"
	      lr_mult: 0
	}
	param {
		name: "scale3b1_branch2b_1"
	      lr_mult: 0
	}
}

layer {
	top: "res3b1_branch2b"
	bottom: "res3b1_branch2b"
	name: "res3b1_branch2b_relu"
	type: "ReLU"
}

layer {
	bottom: "res3b1_branch2b"
	top: "res3b1_branch2c"
	name: "res3b1_branch2c"
	type: "Convolution"
	param {
		name: "res3b1_branch2c_0"
               lr_mult: 1
               decay_mult: 1
        }
        convolution_param {
		num_output: 512
		kernel_size: 1
		pad: 0
		stride: 1
		bias_term: false
	}
}

layer {
	bottom: "res3b1_branch2c"
	top: "res3b1_branch2c"
	name: "bn3b1_branch2c"
	type: "BatchNorm"
	batch_norm_param {
		use_global_stats: true
	}
	param {
		name: "bn3b1_branch2c_0"
	      lr_mult: 0
	}
	param {
		name: "bn3b1_branch2c_1"
	      lr_mult: 0
        }
	param {
		name: "bn3b1_branch2c_2"
	      lr_mult: 0
        }
}

layer {
	bottom: "res3b1_branch2c"
	top: "res3b1_branch2c"
	name: "scale3b1_branch2c"
	type: "Scale"
	scale_param {
		bias_term: true
	}
	param {
		name: "scale3b1_branch2c_0"
	      lr_mult: 0
	}
	param {
		name: "scale3b1_branch2c_1"
	      lr_mult: 0
	}
}

layer {
	bottom: "res3a"
	bottom: "res3b1_branch2c"
	top: "res3b1"
	name: "res3b1"
	type: "Eltwise"
}

layer {
	bottom: "res3b1"
	top: "res3b1"
	name: "res3b1_relu"
	type: "ReLU"
}

layer {
	bottom: "res3b1"
	top: "res3b2_branch2a"
	name: "res3b2_branch2a"
	type: "Convolution"
	param {
		name: "res3b2_branch2a_0"
               lr_mult: 1
               decay_mult: 1
        }
        convolution_param {
		num_output: 128
		kernel_size: 1
		pad: 0
		stride: 1
		bias_term: false
	}
}

layer {
	bottom: "res3b2_branch2a"
	top: "res3b2_branch2a"
	name: "bn3b2_branch2a"
	type: "BatchNorm"
	batch_norm_param {
		use_global_stats: true
	}
	param {
		name: "bn3b2_branch2a_0"
	      lr_mult: 0
	}
	param {
		name: "bn3b2_branch2a_1"
	      lr_mult: 0
        }
	param {
		name: "bn3b2_branch2a_2"
	      lr_mult: 0
        }
}

layer {
	bottom: "res3b2_branch2a"
	top: "res3b2_branch2a"
	name: "scale3b2_branch2a"
	type: "Scale"
	scale_param {
		bias_term: true
	}
	param {
		name: "scale3b2_branch2a_0"
	      lr_mult: 0
	}
	param {
              name: "scale3b2_branch2a_1"
              lr_mult: 0
        }
}

layer {
	top: "res3b2_branch2a"
	bottom: "res3b2_branch2a"
	name: "res3b2_branch2a_relu"
	type: "ReLU"
}

layer {
	bottom: "res3b2_branch2a"
	top: "res3b2_branch2b"
	name: "res3b2_branch2b"
	type: "Convolution"
	param {
		name: "res3b2_branch2b_0"
               lr_mult: 1
               decay_mult: 1
        }
        convolution_param {
		num_output: 128
		kernel_size: 3
		pad: 1
		stride: 1
		bias_term: false
	}
}

layer {
	bottom: "res3b2_branch2b"
	top: "res3b2_branch2b"
	name: "bn3b2_branch2b"
	type: "BatchNorm"
	batch_norm_param {
		use_global_stats: true
	}
	param {
		name: "bn3b2_branch2b_0"
	      lr_mult: 0
	}
	param {
		name: "bn3b2_branch2b_1"
	      lr_mult: 0
        }
	param {
		name: "bn3b2_branch2b_2"
	      lr_mult: 0
        }
}

layer {
	bottom: "res3b2_branch2b"
	top: "res3b2_branch2b"
	name: "scale3b2_branch2b"
	type: "Scale"
	scale_param {
		bias_term: true
	}
	param {
		name: "scale3b2_branch2b_0"
	      lr_mult: 0
	}
	param {
		name: "scale3b2_branch2b_1"
	      lr_mult: 0
	}
}

layer {
	top: "res3b2_branch2b"
	bottom: "res3b2_branch2b"
	name: "res3b2_branch2b_relu"
	type: "ReLU"
}

layer {
	bottom: "res3b2_branch2b"
	top: "res3b2_branch2c"
	name: "res3b2_branch2c"
	type: "Convolution"
	param {
		name: "res3b2_branch2c_0"
               lr_mult: 1
               decay_mult: 1
        }
        convolution_param {
		num_output: 512
		kernel_size: 1
		pad: 0
		stride: 1
		bias_term: false
	}
}

layer {
	bottom: "res3b2_branch2c"
	top: "res3b2_branch2c"
	name: "bn3b2_branch2c"
	type: "BatchNorm"
	batch_norm_param {
		use_global_stats: true
	}
	param {
		name: "bn3b2_branch2c_0"
	      lr_mult: 0
	}
	param {
		name: "bn3b2_branch2c_1"
	      lr_mult: 0
        }
	param {
		name: "bn3b2_branch2c_2"
	      lr_mult: 0
        }
}

layer {
	bottom: "res3b2_branch2c"
	top: "res3b2_branch2c"
	name: "scale3b2_branch2c"
	type: "Scale"
	scale_param {
		bias_term: true
	}
	param {
		name: "scale3b2_branch2c_0"
	      lr_mult: 0
	}
	param {
		name: "scale3b2_branch2c_1"
	      lr_mult: 0
	}
}

layer {
	bottom: "res3b1"
	bottom: "res3b2_branch2c"
	top: "res3b2"
	name: "res3b2"
	type: "Eltwise"
}

layer {
	bottom: "res3b2"
	top: "res3b2"
	name: "res3b2_relu"
	type: "ReLU"
}

layer {
	bottom: "res3b2"
	top: "res3b3_branch2a"
	name: "res3b3_branch2a"
	type: "Convolution"
	param {
		name: "res3b3_branch2a_0"
               lr_mult: 1
               decay_mult: 1
        }
        convolution_param {
		num_output: 128
		kernel_size: 1
		pad: 0
		stride: 1
		bias_term: false
	}
}

layer {
	bottom: "res3b3_branch2a"
	top: "res3b3_branch2a"
	name: "bn3b3_branch2a"
	type: "BatchNorm"
	batch_norm_param {
		use_global_stats: true
	}
	param {
		name: "bn3b3_branch2a_0"
	      lr_mult: 0
	}
	param {
		name: "bn3b3_branch2a_1"
	      lr_mult: 0
        }
	param {
		name: "bn3b3_branch2a_2"
	      lr_mult: 0
        }
}

layer {
	bottom: "res3b3_branch2a"
	top: "res3b3_branch2a"
	name: "scale3b3_branch2a"
	type: "Scale"
	scale_param {
		bias_term: true
	}
	param {
		name: "scale3b3_branch2a_0"
	      lr_mult: 0
	}
	param {
		name: "scale3b3_branch2a_1"
	      lr_mult: 0
	}
}

layer {
	top: "res3b3_branch2a"
	bottom: "res3b3_branch2a"
	name: "res3b3_branch2a_relu"
	type: "ReLU"
}

layer {
	bottom: "res3b3_branch2a"
	top: "res3b3_branch2b"
	name: "res3b3_branch2b"
	type: "Convolution"
	param {
		name: "res3b3_branch2b_0"
               lr_mult: 1
               decay_mult: 1
        }
        convolution_param {
		num_output: 128
		kernel_size: 3
		pad: 1
		stride: 1
		bias_term: false
	}
}

layer {
	bottom: "res3b3_branch2b"
	top: "res3b3_branch2b"
	name: "bn3b3_branch2b"
	type: "BatchNorm"
	batch_norm_param {
		use_global_stats: true
	}
	param {
		name: "bn3b3_branch2b_0"
	      lr_mult: 0
	}
	param {
		name: "bn3b3_branch2b_1"
	      lr_mult: 0
        }
	param {
		name: "bn3b3_branch2b_2"
	      lr_mult: 0
        }
}

layer {
	bottom: "res3b3_branch2b"
	top: "res3b3_branch2b"
	name: "scale3b3_branch2b"
	type: "Scale"
	scale_param {
		bias_term: true
	}
	param {
		name: "scale3b3_branch2b_0"
	      lr_mult: 0
	}
	param {
		name: "scale3b3_branch2b_1"
	      lr_mult: 0
	}
}

layer {
	top: "res3b3_branch2b"
	bottom: "res3b3_branch2b"
	name: "res3b3_branch2b_relu"
	type: "ReLU"
}

layer {
	bottom: "res3b3_branch2b"
	top: "res3b3_branch2c"
	name: "res3b3_branch2c"
	type: "Convolution"
	param {
		name: "res3b3_branch2c_0"
               lr_mult: 1
               decay_mult: 1
        }
        convolution_param {
		num_output: 512
		kernel_size: 1
		pad: 0
		stride: 1
		bias_term: false
	}
}

layer {
	bottom: "res3b3_branch2c"
	top: "res3b3_branch2c"
	name: "bn3b3_branch2c"
	type: "BatchNorm"
	batch_norm_param {
		use_global_stats: true
	}
	param {
		name: "bn3b3_branch2c_0"
	      lr_mult: 0
	}
	param {
		name: "bn3b3_branch2c_1"
	      lr_mult: 0
        }
	param {
		name: "bn3b3_branch2c_2"
	      lr_mult: 0
        }
}

layer {
	bottom: "res3b3_branch2c"
	top: "res3b3_branch2c"
	name: "scale3b3_branch2c"
	type: "Scale"
	scale_param {
		bias_term: true
	}
	param {
		name: "scale3b3_branch2c_0"
	      lr_mult: 0
	}
	param {
		name: "scale3b3_branch2c_1"
	      lr_mult: 0
	}
}

layer {
	bottom: "res3b2"
	bottom: "res3b3_branch2c"
	top: "res3b3"
	name: "res3b3"
	type: "Eltwise"
}

layer {
	bottom: "res3b3"
	top: "res3b3"
	name: "res3b3_relu"
	type: "ReLU"
}

layer {
	bottom: "res3b3"
	top: "res4a_branch1"
	name: "res4a_branch1"
	type: "Convolution"
	param {
		name: "res4a_branch1_0"
               lr_mult: 1
               decay_mult: 1
        }
        convolution_param {
		num_output: 1024
		kernel_size: 1
		pad: 0
		stride: 1
		bias_term: false
	}
}

layer {
	bottom: "res4a_branch1"
	top: "res4a_branch1"
	name: "bn4a_branch1"
	type: "BatchNorm"
	batch_norm_param {
		use_global_stats: true
	}
	param {
		name: "bn4a_branch1_0"
	      lr_mult: 0
	}
	param {
		name: "bn4a_branch1_1"
	      lr_mult: 0
        }
	param {
		name: "bn4a_branch1_2"
	      lr_mult: 0
        }
}

layer {
	bottom: "res4a_branch1"
	top: "res4a_branch1"
	name: "scale4a_branch1"
	type: "Scale"
	scale_param {
		bias_term: true
	}
	param {
		name: "scale4a_branch1_0"
	      lr_mult: 0
	}
	param {
		name: "scale4a_branch1_1"
	      lr_mult: 0
	}
}

layer {
	bottom: "res3b3"
	top: "res4a_branch2a"
	name: "res4a_branch2a"
	type: "Convolution"
	param {
		name: "res4a_branch2a_0"
               lr_mult: 1
               decay_mult: 1
        }
        convolution_param {
		num_output: 256
		kernel_size: 1
		pad: 0
		stride: 1
		bias_term: false
	}
}

layer {
	bottom: "res4a_branch2a"
	top: "res4a_branch2a"
	name: "bn4a_branch2a"
	type: "BatchNorm"
	batch_norm_param {
		use_global_stats: true
	}
	param {
		name: "bn4a_branch2a_0"
	      lr_mult: 0
	}
	param {
		name: "bn4a_branch2a_1"
	      lr_mult: 0
        }
	param {
		name: "bn4a_branch2a_2"
	      lr_mult: 0
        }
}

layer {
	bottom: "res4a_branch2a"
	top: "res4a_branch2a"
	name: "scale4a_branch2a"
	type: "Scale"
	scale_param {
		bias_term: true
	}
	param {
		name: "scale4a_branch2a_0"
	      lr_mult: 0
	}
	param {
		name: "scale4a_branch2a_1"
	      lr_mult: 0
	}
}

layer {
	top: "res4a_branch2a"
	bottom: "res4a_branch2a"
	name: "res4a_branch2a_relu"
	type: "ReLU"
}

layer {
	bottom: "res4a_branch2a"
	top: "res4a_branch2b"
	name: "res4a_branch2b"
	type: "Convolution"
	param {
		name: "res4a_branch2b_0"
               lr_mult: 1
               decay_mult: 1
        }
        convolution_param {
		num_output: 256
		kernel_size: 3
		pad: 2
		dilation: 2
		stride: 1
		bias_term: false
	}
}

layer {
	bottom: "res4a_branch2b"
	top: "res4a_branch2b"
	name: "bn4a_branch2b"
	type: "BatchNorm"
	batch_norm_param {
		use_global_stats: true
	}
	param {
		name: "bn4a_branch2b_0"
	      lr_mult: 0
	}
	param {
		name: "bn4a_branch2b_1"
	      lr_mult: 0
        }
	param {
		name: "bn4a_branch2b_2"
	      lr_mult: 0
        }
}

layer {
	bottom: "res4a_branch2b"
	top: "res4a_branch2b"
	name: "scale4a_branch2b"
	type: "Scale"
	scale_param {
		bias_term: true
	}
	param {
		name: "scale4a_branch2b_0"
	      lr_mult: 0
	}
	param {
		name: "scale4a_branch2b_1"
	      lr_mult: 0
	}
}

layer {
	top: "res4a_branch2b"
	bottom: "res4a_branch2b"
	name: "res4a_branch2b_relu"
	type: "ReLU"
}

layer {
	bottom: "res4a_branch2b"
	top: "res4a_branch2c"
	name: "res4a_branch2c"
	type: "Convolution"
	param {
		name: "res4a_branch2c_0"
               lr_mult: 1
               decay_mult: 1
        }
        convolution_param {
		num_output: 1024
		kernel_size: 1
		pad: 0
		stride: 1
		bias_term: false
	}
}

layer {
	bottom: "res4a_branch2c"
	top: "res4a_branch2c"
	name: "bn4a_branch2c"
	type: "BatchNorm"
	batch_norm_param {
		use_global_stats: true
	}
	param {
		name: "bn4a_branch2c_0"
	      lr_mult: 0
	}
	param {
		name: "bn4a_branch2c_1"
	      lr_mult: 0
        }
	param {
		name: "bn4a_branch2c_2"
	      lr_mult: 0
        }
}

layer {
	bottom: "res4a_branch2c"
	top: "res4a_branch2c"
	name: "scale4a_branch2c"
	type: "Scale"
	scale_param {
		bias_term: true
	}
	param {
		name: "scale4a_branch2c_0"
	      lr_mult: 0
	}
	param {
		name: "scale4a_branch2c_1"
	      lr_mult: 0
	}
}

layer {
	bottom: "res4a_branch1"
	bottom: "res4a_branch2c"
	top: "res4a"
	name: "res4a"
	type: "Eltwise"
}

layer {
	bottom: "res4a"
	top: "res4a"
	name: "res4a_relu"
	type: "ReLU"
}

layer {
	bottom: "res4a"
	top: "res4b1_branch2a"
	name: "res4b1_branch2a"
	type: "Convolution"
	param {
		name: "res4b1_branch2a_0"
               lr_mult: 1
               decay_mult: 1
        }
        convolution_param {
		num_output: 256
		kernel_size: 1
		pad: 0
		stride: 1
		bias_term: false
	}
}

layer {
	bottom: "res4b1_branch2a"
	top: "res4b1_branch2a"
	name: "bn4b1_branch2a"
	type: "BatchNorm"
	batch_norm_param {
		use_global_stats: true
	}
	param {
		name: "bn4b1_branch2a_0"
	      lr_mult: 0
	}
	param {
		name: "bn4b1_branch2a_1"
	      lr_mult: 0
        }
	param {
		name: "bn4b1_branch2a_2"
	      lr_mult: 0
        }
}

layer {
	bottom: "res4b1_branch2a"
	top: "res4b1_branch2a"
	name: "scale4b1_branch2a"
	type: "Scale"
	scale_param {
		bias_term: true
	}
	param {
		name: "scale4b1_branch2a_0"
	      lr_mult: 0
	}
	param {
		name: "scale4b1_branch2a_1"
	      lr_mult: 0
	}
}

layer {
	top: "res4b1_branch2a"
	bottom: "res4b1_branch2a"
	name: "res4b1_branch2a_relu"
	type: "ReLU"
}

layer {
	bottom: "res4b1_branch2a"
	top: "res4b1_branch2b"
	name: "res4b1_branch2b"
	type: "Convolution"
	param {
		name: "res4b1_branch2b_0"
               lr_mult: 1
               decay_mult: 1
        }
        convolution_param {
		num_output: 256
		kernel_size: 3
		pad: 2
		dilation: 2
		stride: 1
		bias_term: false
	}
}

layer {
	bottom: "res4b1_branch2b"
	top: "res4b1_branch2b"
	name: "bn4b1_branch2b"
	type: "BatchNorm"
	batch_norm_param {
		use_global_stats: true
	}
	param {
		name: "bn4b1_branch2b_0"
	      lr_mult: 0
	}
	param {
		name: "bn4b1_branch2b_1"
	      lr_mult: 0
        }
	param {
		name: "bn4b1_branch2b_2"
	      lr_mult: 0
        }
}

layer {
	bottom: "res4b1_branch2b"
	top: "res4b1_branch2b"
	name: "scale4b1_branch2b"
	type: "Scale"
	scale_param {
		bias_term: true
	}
	param {
		name: "scale4b1_branch2b_0"
	      lr_mult: 0
	}
	param {
		name: "scale4b1_branch2b_1"
	      lr_mult: 0
	}
}

layer {
	top: "res4b1_branch2b"
	bottom: "res4b1_branch2b"
	name: "res4b1_branch2b_relu"
	type: "ReLU"
}

layer {
	bottom: "res4b1_branch2b"
	top: "res4b1_branch2c"
	name: "res4b1_branch2c"
	type: "Convolution"
	param {
		name: "res4b1_branch2c_0"
               lr_mult: 1
               decay_mult: 1
        }
        convolution_param {
		num_output: 1024
		kernel_size: 1
		pad: 0
		stride: 1
		bias_term: false
	}
}

layer {
	bottom: "res4b1_branch2c"
	top: "res4b1_branch2c"
	name: "bn4b1_branch2c"
	type: "BatchNorm"
	batch_norm_param {
		use_global_stats: true
	}
	param {
		name: "bn4b1_branch2c_0"
	      lr_mult: 0
	}
	param {
		name: "bn4b1_branch2c_1"
	      lr_mult: 0
        }
	param {
		name: "bn4b1_branch2c_2"
	      lr_mult: 0
        }
}

layer {
	bottom: "res4b1_branch2c"
	top: "res4b1_branch2c"
	name: "scale4b1_branch2c"
	type: "Scale"
	scale_param {
		bias_term: true
	}
	param {
		name: "scale4b1_branch2c_0"
	      lr_mult: 0
	}
	param {
		name: "scale4b1_branch2c_1"
	      lr_mult: 0
	}
}

layer {
	bottom: "res4a"
	bottom: "res4b1_branch2c"
	top: "res4b1"
	name: "res4b1"
	type: "Eltwise"
}

layer {
	bottom: "res4b1"
	top: "res4b1"
	name: "res4b1_relu"
	type: "ReLU"
}

layer {
	bottom: "res4b1"
	top: "res4b2_branch2a"
	name: "res4b2_branch2a"
	type: "Convolution"
	param {
		name: "res4b2_branch2a_0"
               lr_mult: 1
               decay_mult: 1
        }
        convolution_param {
		num_output: 256
		kernel_size: 1
		pad: 0
		stride: 1
		bias_term: false
	}
}

layer {
	bottom: "res4b2_branch2a"
	top: "res4b2_branch2a"
	name: "bn4b2_branch2a"
	type: "BatchNorm"
	batch_norm_param {
		use_global_stats: true
	}
	param {
		name: "bn4b2_branch2a_0"
	      lr_mult: 0
	}
	param {
		name: "bn4b2_branch2a_1"
	      lr_mult: 0
        }
	param {
		name: "bn4b2_branch2a_2"
	      lr_mult: 0
        }
}

layer {
	bottom: "res4b2_branch2a"
	top: "res4b2_branch2a"
	name: "scale4b2_branch2a"
	type: "Scale"
	scale_param {
		bias_term: true
	}
	param {
		name: "scale4b2_branch2a_0"
	      lr_mult: 0
	}
	param {
		name: "scale4b2_branch2a_1"
	      lr_mult: 0
	}
}

layer {
	top: "res4b2_branch2a"
	bottom: "res4b2_branch2a"
	name: "res4b2_branch2a_relu"
	type: "ReLU"
}

layer {
	bottom: "res4b2_branch2a"
	top: "res4b2_branch2b"
	name: "res4b2_branch2b"
	type: "Convolution"
	param {
		name: "res4b2_branch2b_0"
               lr_mult: 1
               decay_mult: 1
        }
        convolution_param {
		num_output: 256
		kernel_size: 3
		pad: 2
		dilation: 2
		stride: 1
		bias_term: false
	}
}

layer {
	bottom: "res4b2_branch2b"
	top: "res4b2_branch2b"
	name: "bn4b2_branch2b"
	type: "BatchNorm"
	batch_norm_param {
		use_global_stats: true
	}
	param {
		name: "bn4b2_branch2b_0"
	      lr_mult: 0
	}
	param {
		name: "bn4b2_branch2b_1"
	      lr_mult: 0
        }
	param {
		name: "bn4b2_branch2b_2"
	      lr_mult: 0
        }
}

layer {
	bottom: "res4b2_branch2b"
	top: "res4b2_branch2b"
	name: "scale4b2_branch2b"
	type: "Scale"
	scale_param {
		bias_term: true
	}
	param {
		name: "scale4b2_branch2b_0"
	      lr_mult: 0
	}
	param {
		name: "scale4b2_branch2b_1"
	      lr_mult: 0
	}
}

layer {
	top: "res4b2_branch2b"
	bottom: "res4b2_branch2b"
	name: "res4b2_branch2b_relu"
	type: "ReLU"
}

layer {
	bottom: "res4b2_branch2b"
	top: "res4b2_branch2c"
	name: "res4b2_branch2c"
	type: "Convolution"
	param {
		name: "res4b2_branch2c_0"
               lr_mult: 1
               decay_mult: 1
        }
        convolution_param {
		num_output: 1024
		kernel_size: 1
		pad: 0
		stride: 1
		bias_term: false
	}
}

layer {
	bottom: "res4b2_branch2c"
	top: "res4b2_branch2c"
	name: "bn4b2_branch2c"
	type: "BatchNorm"
	batch_norm_param {
		use_global_stats: true
	}
	param {
		name: "bn4b2_branch2c_0"
	      lr_mult: 0
	}
	param {
		name: "bn4b2_branch2c_1"
	      lr_mult: 0
        }
	param {
		name: "bn4b2_branch2c_2"
	      lr_mult: 0
        }
}

layer {
	bottom: "res4b2_branch2c"
	top: "res4b2_branch2c"
	name: "scale4b2_branch2c"
	type: "Scale"
	scale_param {
		bias_term: true
	}
	param {
		name: "scale4b2_branch2c_0"
	      lr_mult: 0
	}
	param {
		name: "scale4b2_branch2c_1"
	      lr_mult: 0
	}
}

layer {
	bottom: "res4b1"
	bottom: "res4b2_branch2c"
	top: "res4b2"
	name: "res4b2"
	type: "Eltwise"
}

layer {
	bottom: "res4b2"
	top: "res4b2"
	name: "res4b2_relu"
	type: "ReLU"
}

layer {
	bottom: "res4b2"
	top: "res4b3_branch2a"
	name: "res4b3_branch2a"
	type: "Convolution"
	param {
		name: "res4b3_branch2a_0"
               lr_mult: 1
               decay_mult: 1
        }
        convolution_param {
		num_output: 256
		kernel_size: 1
		pad: 0
		stride: 1
		bias_term: false
	}
}

layer {
	bottom: "res4b3_branch2a"
	top: "res4b3_branch2a"
	name: "bn4b3_branch2a"
	type: "BatchNorm"
	batch_norm_param {
		use_global_stats: true
	}
	param {
		name: "bn4b3_branch2a_0"
	      lr_mult: 0
	}
	param {
		name: "bn4b3_branch2a_1"
	      lr_mult: 0
        }
	param {
		name: "bn4b3_branch2a_2"
	      lr_mult: 0
        }
}

layer {
	bottom: "res4b3_branch2a"
	top: "res4b3_branch2a"
	name: "scale4b3_branch2a"
	type: "Scale"
	scale_param {
		bias_term: true
	}
	param {
		name: "scale4b3_branch2a_0"
	      lr_mult: 0
	}
	param {
		name: "scale4b3_branch2a_1"
	      lr_mult: 0
	}
}

layer {
	top: "res4b3_branch2a"
	bottom: "res4b3_branch2a"
	name: "res4b3_branch2a_relu"
	type: "ReLU"
}

layer {
	bottom: "res4b3_branch2a"
	top: "res4b3_branch2b"
	name: "res4b3_branch2b"
	type: "Convolution"
	param {
		name: "res4b3_branch2b_0"
               lr_mult: 1
               decay_mult: 1
        }
        convolution_param {
		num_output: 256
		kernel_size: 3
		pad: 2
		dilation: 2
		stride: 1
		bias_term: false
	}
}

layer {
	bottom: "res4b3_branch2b"
	top: "res4b3_branch2b"
	name: "bn4b3_branch2b"
	type: "BatchNorm"
	batch_norm_param {
		use_global_stats: true
	}
	param {
		name: "bn4b3_branch2b_0"
	      lr_mult: 0
	}
	param {
		name: "bn4b3_branch2b_1"
	      lr_mult: 0
        }
	param {
		name: "bn4b3_branch2b_2"
	      lr_mult: 0
        }
}

layer {
	bottom: "res4b3_branch2b"
	top: "res4b3_branch2b"
	name: "scale4b3_branch2b"
	type: "Scale"
	scale_param {
		bias_term: true
	}
	param {
		name: "scale4b3_branch2b_0"
	      lr_mult: 0
	}
	param {
		name: "scale4b3_branch2b_1"
	      lr_mult: 0
	}
}

layer {
	top: "res4b3_branch2b"
	bottom: "res4b3_branch2b"
	name: "res4b3_branch2b_relu"
	type: "ReLU"
}

layer {
	bottom: "res4b3_branch2b"
	top: "res4b3_branch2c"
	name: "res4b3_branch2c"
	type: "Convolution"
	param {
		name: "res4b3_branch2c_0"
               lr_mult: 1
               decay_mult: 1
        }
        convolution_param {
		num_output: 1024
		kernel_size: 1
		pad: 0
		stride: 1
		bias_term: false
	}
}

layer {
	bottom: "res4b3_branch2c"
	top: "res4b3_branch2c"
	name: "bn4b3_branch2c"
	type: "BatchNorm"
	batch_norm_param {
		use_global_stats: true
	}
	param {
		name: "bn4b3_branch2c_0"
	      lr_mult: 0
	}
	param {
		name: "bn4b3_branch2c_1"
	      lr_mult: 0
        }
	param {
		name: "bn4b3_branch2c_2"
	      lr_mult: 0
        }
}

layer {
	bottom: "res4b3_branch2c"
	top: "res4b3_branch2c"
	name: "scale4b3_branch2c"
	type: "Scale"
	scale_param {
		bias_term: true
	}
	param {
		name: "scale4b3_branch2c_0"
	      lr_mult: 0
	}
	param {
		name: "scale4b3_branch2c_1"
	      lr_mult: 0
	}
}

layer {
	bottom: "res4b2"
	bottom: "res4b3_branch2c"
	top: "res4b3"
	name: "res4b3"
	type: "Eltwise"
}

layer {
	bottom: "res4b3"
	top: "res4b3"
	name: "res4b3_relu"
	type: "ReLU"
}

layer {
	bottom: "res4b3"
	top: "res4b4_branch2a"
	name: "res4b4_branch2a"
	type: "Convolution"
	param {
		name: "res4b4_branch2a_0"
               lr_mult: 1
               decay_mult: 1
        }
        convolution_param {
		num_output: 256
		kernel_size: 1
		pad: 0
		stride: 1
		bias_term: false
	}
}

layer {
	bottom: "res4b4_branch2a"
	top: "res4b4_branch2a"
	name: "bn4b4_branch2a"
	type: "BatchNorm"
	batch_norm_param {
		use_global_stats: true
	}
	param {
		name: "bn4b4_branch2a_0"
	      lr_mult: 0
	}
	param {
		name: "bn4b4_branch2a_1"
	      lr_mult: 0
        }
	param {
		name: "bn4b4_branch2a_2"
	      lr_mult: 0
        }
}

layer {
	bottom: "res4b4_branch2a"
	top: "res4b4_branch2a"
	name: "scale4b4_branch2a"
	type: "Scale"
	scale_param {
		bias_term: true
	}
	param {
		name: "scale4b4_branch2a_0"
	      lr_mult: 0
	}
	param {
		name: "scale4b4_branch2a_1"
	      lr_mult: 0
	}
}

layer {
	top: "res4b4_branch2a"
	bottom: "res4b4_branch2a"
	name: "res4b4_branch2a_relu"
	type: "ReLU"
}

layer {
	bottom: "res4b4_branch2a"
	top: "res4b4_branch2b"
	name: "res4b4_branch2b"
	type: "Convolution"
	param {
		name: "res4b4_branch2b_0"
               lr_mult: 1
               decay_mult: 1
        }
        convolution_param {
		num_output: 256
		kernel_size: 3
		pad: 2
		dilation: 2
		stride: 1
		bias_term: false
	}
}

layer {
	bottom: "res4b4_branch2b"
	top: "res4b4_branch2b"
	name: "bn4b4_branch2b"
	type: "BatchNorm"
	batch_norm_param {
		use_global_stats: true
	}
	param {
		name: "bn4b4_branch2b_0"
	      lr_mult: 0
	}
	param {
		name: "bn4b4_branch2b_1"
	      lr_mult: 0
        }
	param {
		name: "bn4b4_branch2b_2"
	      lr_mult: 0
        }
}

layer {
	bottom: "res4b4_branch2b"
	top: "res4b4_branch2b"
	name: "scale4b4_branch2b"
	type: "Scale"
	scale_param {
		bias_term: true
	}
	param {
		name: "scale4b4_branch2b_0"
	      lr_mult: 0
	}
	param {
		name: "scale4b4_branch2b_1"
	      lr_mult: 0
	}
}

layer {
	top: "res4b4_branch2b"
	bottom: "res4b4_branch2b"
	name: "res4b4_branch2b_relu"
	type: "ReLU"
}

layer {
	bottom: "res4b4_branch2b"
	top: "res4b4_branch2c"
	name: "res4b4_branch2c"
	type: "Convolution"
	param {
		name: "res4b4_branch2c_0"
               lr_mult: 1
               decay_mult: 1
        }
        convolution_param {
		num_output: 1024
		kernel_size: 1
		pad: 0
		stride: 1
		bias_term: false
	}
}

layer {
	bottom: "res4b4_branch2c"
	top: "res4b4_branch2c"
	name: "bn4b4_branch2c"
	type: "BatchNorm"
	batch_norm_param {
		use_global_stats: true
	}
	param {
		name: "bn4b4_branch2c_0"
	      lr_mult: 0
	}
	param {
		name: "bn4b4_branch2c_1"
	      lr_mult: 0
        }
	param {
		name: "bn4b4_branch2c_2"
	      lr_mult: 0
        }
}

layer {
	bottom: "res4b4_branch2c"
	top: "res4b4_branch2c"
	name: "scale4b4_branch2c"
	type: "Scale"
	scale_param {
		bias_term: true
	}
	param {
		name: "scale4b4_branch2c_0"
	      lr_mult: 0
	}
	param {
		name: "scale4b4_branch2c_1"
	      lr_mult: 0
	}
}

layer {
	bottom: "res4b3"
	bottom: "res4b4_branch2c"
	top: "res4b4"
	name: "res4b4"
	type: "Eltwise"
}

layer {
	bottom: "res4b4"
	top: "res4b4"
	name: "res4b4_relu"
	type: "ReLU"
}

layer {
	bottom: "res4b4"
	top: "res4b5_branch2a"
	name: "res4b5_branch2a"
	type: "Convolution"
	param {
		name: "res4b5_branch2a_0"
               lr_mult: 1
               decay_mult: 1
        }
        convolution_param {
		num_output: 256
		kernel_size: 1
		pad: 0
		stride: 1
		bias_term: false
	}
}

layer {
	bottom: "res4b5_branch2a"
	top: "res4b5_branch2a"
	name: "bn4b5_branch2a"
	type: "BatchNorm"
	batch_norm_param {
		use_global_stats: true
	}
	param {
		name: "bn4b5_branch2a_0"
	      lr_mult: 0
	}
	param {
		name: "bn4b5_branch2a_1"
	      lr_mult: 0
        }
	param {
		name: "bn4b5_branch2a_2"
	      lr_mult: 0
        }
}

layer {
	bottom: "res4b5_branch2a"
	top: "res4b5_branch2a"
	name: "scale4b5_branch2a"
	type: "Scale"
	scale_param {
		bias_term: true
	}
	param {
		name: "scale4b5_branch2a_0"
	      lr_mult: 0
	}
	param {
		name: "scale4b5_branch2a_1"
	      lr_mult: 0
	}
}

layer {
	top: "res4b5_branch2a"
	bottom: "res4b5_branch2a"
	name: "res4b5_branch2a_relu"
	type: "ReLU"
}

layer {
	bottom: "res4b5_branch2a"
	top: "res4b5_branch2b"
	name: "res4b5_branch2b"
	type: "Convolution"
	param {
		name: "res4b5_branch2b_0"
               lr_mult: 1
               decay_mult: 1
        }
        convolution_param {
		num_output: 256
		kernel_size: 3
		pad: 2
		dilation: 2
		stride: 1
		bias_term: false
	}
}

layer {
	bottom: "res4b5_branch2b"
	top: "res4b5_branch2b"
	name: "bn4b5_branch2b"
	type: "BatchNorm"
	batch_norm_param {
		use_global_stats: true
	}
	param {
		name: "bn4b5_branch2b_0"
	      lr_mult: 0
	}
	param {
		name: "bn4b5_branch2b_1"
	      lr_mult: 0
        }
	param {
		name: "bn4b5_branch2b_2"
	      lr_mult: 0
        }
}

layer {
	bottom: "res4b5_branch2b"
	top: "res4b5_branch2b"
	name: "scale4b5_branch2b"
	type: "Scale"
	scale_param {
		bias_term: true
	}
	param {
		name: "scale4b5_branch2b_0"
	      lr_mult: 0
	}
	param {
		name: "scale4b5_branch2b_1"
	      lr_mult: 0
	}
}

layer {
	top: "res4b5_branch2b"
	bottom: "res4b5_branch2b"
	name: "res4b5_branch2b_relu"
	type: "ReLU"
}

layer {
	bottom: "res4b5_branch2b"
	top: "res4b5_branch2c"
	name: "res4b5_branch2c"
	type: "Convolution"
	param {
		name: "res4b5_branch2c_0"
               lr_mult: 1
               decay_mult: 1
        }
        convolution_param {
		num_output: 1024
		kernel_size: 1
		pad: 0
		stride: 1
		bias_term: false
	}
}

layer {
	bottom: "res4b5_branch2c"
	top: "res4b5_branch2c"
	name: "bn4b5_branch2c"
	type: "BatchNorm"
	batch_norm_param {
		use_global_stats: true
	}
	param {
		name: "bn4b5_branch2c_0"
	      lr_mult: 0
	}
	param {
		name: "bn4b5_branch2c_1"
	      lr_mult: 0
        }
	param {
		name: "bn4b5_branch2c_2"
	      lr_mult: 0
        }
}

layer {
	bottom: "res4b5_branch2c"
	top: "res4b5_branch2c"
	name: "scale4b5_branch2c"
	type: "Scale"
	scale_param {
		bias_term: true
	}
	param {
		name: "scale4b5_branch2c_0"
	      lr_mult: 0
	}
	param {
		name: "scale4b5_branch2c_1"
	      lr_mult: 0
	}
}

layer {
	bottom: "res4b4"
	bottom: "res4b5_branch2c"
	top: "res4b5"
	name: "res4b5"
	type: "Eltwise"
}

layer {
	bottom: "res4b5"
	top: "res4b5"
	name: "res4b5_relu"
	type: "ReLU"
}

layer {
	bottom: "res4b5"
	top: "res4b6_branch2a"
	name: "res4b6_branch2a"
	type: "Convolution"
	param {
		name: "res4b6_branch2a_0"
               lr_mult: 1
               decay_mult: 1
        }
        convolution_param {
		num_output: 256
		kernel_size: 1
		pad: 0
		stride: 1
		bias_term: false
	}
}

layer {
	bottom: "res4b6_branch2a"
	top: "res4b6_branch2a"
	name: "bn4b6_branch2a"
	type: "BatchNorm"
	batch_norm_param {
		use_global_stats: true
	}
	param {
		name: "bn4b6_branch2a_0"
	      lr_mult: 0
	}
	param {
		name: "bn4b6_branch2a_1"
	      lr_mult: 0
        }
	param {
		name: "bn4b6_branch2a_2"
	      lr_mult: 0
        }
}

layer {
	bottom: "res4b6_branch2a"
	top: "res4b6_branch2a"
	name: "scale4b6_branch2a"
	type: "Scale"
	scale_param {
		bias_term: true
	}
	param {
		name: "scale4b6_branch2a_0"
	      lr_mult: 0
	}
	param {
		name: "scale4b6_branch2a_1"
	      lr_mult: 0
	}
}

layer {
	top: "res4b6_branch2a"
	bottom: "res4b6_branch2a"
	name: "res4b6_branch2a_relu"
	type: "ReLU"
}

layer {
	bottom: "res4b6_branch2a"
	top: "res4b6_branch2b"
	name: "res4b6_branch2b"
	type: "Convolution"
	param {
		name: "res4b6_branch2b_0"
               lr_mult: 1
               decay_mult: 1
        }
        convolution_param {
		num_output: 256
		kernel_size: 3
		pad: 2
		dilation: 2
		stride: 1
		bias_term: false
	}
}

layer {
	bottom: "res4b6_branch2b"
	top: "res4b6_branch2b"
	name: "bn4b6_branch2b"
	type: "BatchNorm"
	batch_norm_param {
		use_global_stats: true
	}
	param {
		name: "bn4b6_branch2b_0"
	      lr_mult: 0
	}
	param {
		name: "bn4b6_branch2b_1"
	      lr_mult: 0
        }
	param {
		name: "bn4b6_branch2b_2"
	      lr_mult: 0
        }
}

layer {
	bottom: "res4b6_branch2b"
	top: "res4b6_branch2b"
	name: "scale4b6_branch2b"
	type: "Scale"
	scale_param {
		bias_term: true
	}
	param {
		name: "scale4b6_branch2b_0"
	      lr_mult: 0
	}
	param {
		name: "scale4b6_branch2b_1"
	      lr_mult: 0
	}
}

layer {
	top: "res4b6_branch2b"
	bottom: "res4b6_branch2b"
	name: "res4b6_branch2b_relu"
	type: "ReLU"
}

layer {
	bottom: "res4b6_branch2b"
	top: "res4b6_branch2c"
	name: "res4b6_branch2c"
	type: "Convolution"
	param {
		name: "res4b6_branch2c_0"
               lr_mult: 1
               decay_mult: 1
        }
        convolution_param {
		num_output: 1024
		kernel_size: 1
		pad: 0
		stride: 1
		bias_term: false
	}
}

layer {
	bottom: "res4b6_branch2c"
	top: "res4b6_branch2c"
	name: "bn4b6_branch2c"
	type: "BatchNorm"
	batch_norm_param {
		use_global_stats: true
	}
	param {
		name: "bn4b6_branch2c_0"
	      lr_mult: 0
	}
	param {
		name: "bn4b6_branch2c_1"
	      lr_mult: 0
        }
	param {
		name: "bn4b6_branch2c_2"
	      lr_mult: 0
        }
}

layer {
	bottom: "res4b6_branch2c"
	top: "res4b6_branch2c"
	name: "scale4b6_branch2c"
	type: "Scale"
	scale_param {
		bias_term: true
	}
	param {
		name: "scale4b6_branch2c_0"
	      lr_mult: 0
	}
	param {
		name: "scale4b6_branch2c_1"
	      lr_mult: 0
	}
}

layer {
	bottom: "res4b5"
	bottom: "res4b6_branch2c"
	top: "res4b6"
	name: "res4b6"
	type: "Eltwise"
}

layer {
	bottom: "res4b6"
	top: "res4b6"
	name: "res4b6_relu"
	type: "ReLU"
}

layer {
	bottom: "res4b6"
	top: "res4b7_branch2a"
	name: "res4b7_branch2a"
	type: "Convolution"
	param {
		name: "res4b7_branch2a_0"
               lr_mult: 1
               decay_mult: 1
        }
        convolution_param {
		num_output: 256
		kernel_size: 1
		pad: 0
		stride: 1
		bias_term: false
	}
}

layer {
	bottom: "res4b7_branch2a"
	top: "res4b7_branch2a"
	name: "bn4b7_branch2a"
	type: "BatchNorm"
	batch_norm_param {
		use_global_stats: true
	}
	param {
		name: "bn4b7_branch2a_0"
	      lr_mult: 0
	}
	param {
		name: "bn4b7_branch2a_1"
	      lr_mult: 0
        }
	param {
		name: "bn4b7_branch2a_2"
	      lr_mult: 0
        }
}

layer {
	bottom: "res4b7_branch2a"
	top: "res4b7_branch2a"
	name: "scale4b7_branch2a"
	type: "Scale"
	scale_param {
		bias_term: true
	}
	param {
		name: "scale4b7_branch2a_0"
	      lr_mult: 0
	}
	param {
		name: "scale4b7_branch2a_1"
	      lr_mult: 0
	}
}

layer {
	top: "res4b7_branch2a"
	bottom: "res4b7_branch2a"
	name: "res4b7_branch2a_relu"
	type: "ReLU"
}

layer {
	bottom: "res4b7_branch2a"
	top: "res4b7_branch2b"
	name: "res4b7_branch2b"
	type: "Convolution"
	param {
		name: "res4b7_branch2b_0"
               lr_mult: 1
               decay_mult: 1
        }
        convolution_param {
		num_output: 256
		kernel_size: 3
		pad: 2
		dilation: 2
		stride: 1
		bias_term: false
	}
}

layer {
	bottom: "res4b7_branch2b"
	top: "res4b7_branch2b"
	name: "bn4b7_branch2b"
	type: "BatchNorm"
	batch_norm_param {
		use_global_stats: true
	}
	param {
		name: "bn4b7_branch2b_0"
	      lr_mult: 0
	}
	param {
		name: "bn4b7_branch2b_1"
	      lr_mult: 0
        }
	param {
		name: "bn4b7_branch2b_2"
	      lr_mult: 0
        }
}

layer {
	bottom: "res4b7_branch2b"
	top: "res4b7_branch2b"
	name: "scale4b7_branch2b"
	type: "Scale"
	scale_param {
		bias_term: true
	}
	param {
		name: "scale4b7_branch2b_0"
	      lr_mult: 0
	}
	param {
		name: "scale4b7_branch2b_1"
	      lr_mult: 0
	}
}

layer {
	top: "res4b7_branch2b"
	bottom: "res4b7_branch2b"
	name: "res4b7_branch2b_relu"
	type: "ReLU"
}

layer {
	bottom: "res4b7_branch2b"
	top: "res4b7_branch2c"
	name: "res4b7_branch2c"
	type: "Convolution"
	param {
		name: "res4b7_branch2c_0"
               lr_mult: 1
               decay_mult: 1
        }
        convolution_param {
		num_output: 1024
		kernel_size: 1
		pad: 0
		stride: 1
		bias_term: false
	}
}

layer {
	bottom: "res4b7_branch2c"
	top: "res4b7_branch2c"
	name: "bn4b7_branch2c"
	type: "BatchNorm"
	batch_norm_param {
		use_global_stats: true
	}
	param {
		name: "bn4b7_branch2c_0"
	      lr_mult: 0
	}
	param {
		name: "bn4b7_branch2c_1"
	      lr_mult: 0
        }
	param {
		name: "bn4b7_branch2c_2"
	      lr_mult: 0
        }
}

layer {
	bottom: "res4b7_branch2c"
	top: "res4b7_branch2c"
	name: "scale4b7_branch2c"
	type: "Scale"
	scale_param {
		bias_term: true
	}
	param {
		name: "scale4b7_branch2c_0"
	      lr_mult: 0
	}
	param {
		name: "scale4b7_branch2c_1"
	      lr_mult: 0
	}
}

layer {
	bottom: "res4b6"
	bottom: "res4b7_branch2c"
	top: "res4b7"
	name: "res4b7"
	type: "Eltwise"
}

layer {
	bottom: "res4b7"
	top: "res4b7"
	name: "res4b7_relu"
	type: "ReLU"
}

layer {
	bottom: "res4b7"
	top: "res4b8_branch2a"
	name: "res4b8_branch2a"
	type: "Convolution"
	param {
		name: "res4b8_branch2a_0"
               lr_mult: 1
               decay_mult: 1
        }
        convolution_param {
		num_output: 256
		kernel_size: 1
		pad: 0
		stride: 1
		bias_term: false
	}
}

layer {
	bottom: "res4b8_branch2a"
	top: "res4b8_branch2a"
	name: "bn4b8_branch2a"
	type: "BatchNorm"
	batch_norm_param {
		use_global_stats: true
	}
	param {
		name: "bn4b8_branch2a_0"
	      lr_mult: 0
	}
	param {
		name: "bn4b8_branch2a_1"
	      lr_mult: 0
        }
	param {
		name: "bn4b8_branch2a_2"
	      lr_mult: 0
        }
}

layer {
	bottom: "res4b8_branch2a"
	top: "res4b8_branch2a"
	name: "scale4b8_branch2a"
	type: "Scale"
	scale_param {
		bias_term: true
	}
	param {
		name: "scale4b8_branch2a_0"
	      lr_mult: 0
	}
	param {
		name: "scale4b8_branch2a_1"
	      lr_mult: 0
	}
}

layer {
	top: "res4b8_branch2a"
	bottom: "res4b8_branch2a"
	name: "res4b8_branch2a_relu"
	type: "ReLU"
}

layer {
	bottom: "res4b8_branch2a"
	top: "res4b8_branch2b"
	name: "res4b8_branch2b"
	type: "Convolution"
	param {
		name: "res4b8_branch2b_0"
               lr_mult: 1
               decay_mult: 1
        }
        convolution_param {
		num_output: 256
		kernel_size: 3
		pad: 2
		dilation: 2
		stride: 1
		bias_term: false
	}
}

layer {
	bottom: "res4b8_branch2b"
	top: "res4b8_branch2b"
	name: "bn4b8_branch2b"
	type: "BatchNorm"
	batch_norm_param {
		use_global_stats: true
	}
	param {
		name: "bn4b8_branch2b_0"
	      lr_mult: 0
	}
	param {
		name: "bn4b8_branch2b_1"
	      lr_mult: 0
        }
	param {
		name: "bn4b8_branch2b_2"
	      lr_mult: 0
        }
}

layer {
	bottom: "res4b8_branch2b"
	top: "res4b8_branch2b"
	name: "scale4b8_branch2b"
	type: "Scale"
	scale_param {
		bias_term: true
	}
	param {
		name: "scale4b8_branch2b_0"
	      lr_mult: 0
	}
	param {
		name: "scale4b8_branch2b_1"
	      lr_mult: 0
	}
}

layer {
	top: "res4b8_branch2b"
	bottom: "res4b8_branch2b"
	name: "res4b8_branch2b_relu"
	type: "ReLU"
}

layer {
	bottom: "res4b8_branch2b"
	top: "res4b8_branch2c"
	name: "res4b8_branch2c"
	type: "Convolution"
	param {
		name: "res4b8_branch2c_0"
               lr_mult: 1
               decay_mult: 1
        }
        convolution_param {
		num_output: 1024
		kernel_size: 1
		pad: 0
		stride: 1
		bias_term: false
	}
}

layer {
	bottom: "res4b8_branch2c"
	top: "res4b8_branch2c"
	name: "bn4b8_branch2c"
	type: "BatchNorm"
	batch_norm_param {
		use_global_stats: true
	}
	param {
		name: "bn4b8_branch2c_0"
	      lr_mult: 0
	}
	param {
		name: "bn4b8_branch2c_1"
	      lr_mult: 0
        }
	param {
		name: "bn4b8_branch2c_2"
	      lr_mult: 0
        }
}

layer {
	bottom: "res4b8_branch2c"
	top: "res4b8_branch2c"
	name: "scale4b8_branch2c"
	type: "Scale"
	scale_param {
		bias_term: true
	}
	param {
		name: "scale4b8_branch2c_0"
	      lr_mult: 0
	}
	param {
		name: "scale4b8_branch2c_1"
	      lr_mult: 0
	}
}

layer {
	bottom: "res4b7"
	bottom: "res4b8_branch2c"
	top: "res4b8"
	name: "res4b8"
	type: "Eltwise"
}

layer {
	bottom: "res4b8"
	top: "res4b8"
	name: "res4b8_relu"
	type: "ReLU"
}

layer {
	bottom: "res4b8"
	top: "res4b9_branch2a"
	name: "res4b9_branch2a"
	type: "Convolution"
	param {
		name: "res4b9_branch2a_0"
               lr_mult: 1
               decay_mult: 1
        }
        convolution_param {
		num_output: 256
		kernel_size: 1
		pad: 0
		stride: 1
		bias_term: false
	}
}

layer {
	bottom: "res4b9_branch2a"
	top: "res4b9_branch2a"
	name: "bn4b9_branch2a"
	type: "BatchNorm"
	batch_norm_param {
		use_global_stats: true
	}
	param {
		name: "bn4b9_branch2a_0"
	      lr_mult: 0
	}
	param {
		name: "bn4b9_branch2a_1"
	      lr_mult: 0
        }
	param {
		name: "bn4b9_branch2a_2"
	      lr_mult: 0
        }
}

layer {
	bottom: "res4b9_branch2a"
	top: "res4b9_branch2a"
	name: "scale4b9_branch2a"
	type: "Scale"
	scale_param {
		bias_term: true
	}
	param {
		name: "scale4b9_branch2a_0"
	      lr_mult: 0
	}
	param {
		name: "scale4b9_branch2a_1"
	      lr_mult: 0
	}
}

layer {
	top: "res4b9_branch2a"
	bottom: "res4b9_branch2a"
	name: "res4b9_branch2a_relu"
	type: "ReLU"
}

layer {
	bottom: "res4b9_branch2a"
	top: "res4b9_branch2b"
	name: "res4b9_branch2b"
	type: "Convolution"
	param {
		name: "res4b9_branch2b_0"
               lr_mult: 1
               decay_mult: 1
        }
        convolution_param {
		num_output: 256
		kernel_size: 3
		pad: 2
		dilation: 2
		stride: 1
		bias_term: false
	}
}

layer {
	bottom: "res4b9_branch2b"
	top: "res4b9_branch2b"
	name: "bn4b9_branch2b"
	type: "BatchNorm"
	batch_norm_param {
		use_global_stats: true
	}
	param {
		name: "bn4b9_branch2b_0"
	      lr_mult: 0
	}
	param {
		name: "bn4b9_branch2b_1"
	      lr_mult: 0
        }
	param {
		name: "bn4b9_branch2b_2"
	      lr_mult: 0
        }
}

layer {
	bottom: "res4b9_branch2b"
	top: "res4b9_branch2b"
	name: "scale4b9_branch2b"
	type: "Scale"
	scale_param {
		bias_term: true
	}
	param {
		name: "scale4b9_branch2b_0"
	      lr_mult: 0
	}
	param {
		name: "scale4b9_branch2b_1"
	      lr_mult: 0
	}
}

layer {
	top: "res4b9_branch2b"
	bottom: "res4b9_branch2b"
	name: "res4b9_branch2b_relu"
	type: "ReLU"
}

layer {
	bottom: "res4b9_branch2b"
	top: "res4b9_branch2c"
	name: "res4b9_branch2c"
	type: "Convolution"
	param {
		name: "res4b9_branch2c_0"
               lr_mult: 1
               decay_mult: 1
        }
        convolution_param {
		num_output: 1024
		kernel_size: 1
		pad: 0
		stride: 1
		bias_term: false
	}
}

layer {
	bottom: "res4b9_branch2c"
	top: "res4b9_branch2c"
	name: "bn4b9_branch2c"
	type: "BatchNorm"
	batch_norm_param {
		use_global_stats: true
	}
	param {
		name: "bn4b9_branch2c_0"
	      lr_mult: 0
	}
	param {
		name: "bn4b9_branch2c_1"
	      lr_mult: 0
        }
	param {
		name: "bn4b9_branch2c_2"
	      lr_mult: 0
        }
}

layer {
	bottom: "res4b9_branch2c"
	top: "res4b9_branch2c"
	name: "scale4b9_branch2c"
	type: "Scale"
	scale_param {
		bias_term: true
	}
	param {
		name: "scale4b9_branch2c_0"
	      lr_mult: 0
	}
	param {
		name: "scale4b9_branch2c_1"
	      lr_mult: 0
	}
}

layer {
	bottom: "res4b8"
	bottom: "res4b9_branch2c"
	top: "res4b9"
	name: "res4b9"
	type: "Eltwise"
}

layer {
	bottom: "res4b9"
	top: "res4b9"
	name: "res4b9_relu"
	type: "ReLU"
}

layer {
	bottom: "res4b9"
	top: "res4b10_branch2a"
	name: "res4b10_branch2a"
	type: "Convolution"
	param {
		name: "res4b10_branch2a_0"
               lr_mult: 1
               decay_mult: 1
        }
        convolution_param {
		num_output: 256
		kernel_size: 1
		pad: 0
		stride: 1
		bias_term: false
	}
}

layer {
	bottom: "res4b10_branch2a"
	top: "res4b10_branch2a"
	name: "bn4b10_branch2a"
	type: "BatchNorm"
	batch_norm_param {
		use_global_stats: true
	}
	param {
		name: "bn4b10_branch2a_0"
	      lr_mult: 0
	}
	param {
		name: "bn4b10_branch2a_1"
	      lr_mult: 0
        }
	param {
		name: "bn4b10_branch2a_2"
	      lr_mult: 0
        }
}

layer {
	bottom: "res4b10_branch2a"
	top: "res4b10_branch2a"
	name: "scale4b10_branch2a"
	type: "Scale"
	scale_param {
		bias_term: true
	}
	param {
		name: "scale4b10_branch2a_0"
	      lr_mult: 0
	}
	param {
		name: "scale4b10_branch2a_1"
	      lr_mult: 0
	}
}

layer {
	top: "res4b10_branch2a"
	bottom: "res4b10_branch2a"
	name: "res4b10_branch2a_relu"
	type: "ReLU"
}

layer {
	bottom: "res4b10_branch2a"
	top: "res4b10_branch2b"
	name: "res4b10_branch2b"
	type: "Convolution"
	param {
		name: "res4b10_branch2b_0"
               lr_mult: 1
               decay_mult: 1
        }
        convolution_param {
		num_output: 256
		kernel_size: 3
		pad: 2
		dilation: 2
		stride: 1
		bias_term: false
	}
}

layer {
	bottom: "res4b10_branch2b"
	top: "res4b10_branch2b"
	name: "bn4b10_branch2b"
	type: "BatchNorm"
	batch_norm_param {
		use_global_stats: true
	}
	param {
		name: "bn4b10_branch2b_0"
	      lr_mult: 0
	}
	param {
		name: "bn4b10_branch2b_1"
	      lr_mult: 0
        }
	param {
		name: "bn4b10_branch2b_2"
	      lr_mult: 0
        }
}

layer {
	bottom: "res4b10_branch2b"
	top: "res4b10_branch2b"
	name: "scale4b10_branch2b"
	type: "Scale"
	scale_param {
		bias_term: true
	}
	param {
		name: "scale4b10_branch2b_0"
	      lr_mult: 0
	}
	param {
		name: "scale4b10_branch2b_1"
	      lr_mult: 0
	}
}

layer {
	top: "res4b10_branch2b"
	bottom: "res4b10_branch2b"
	name: "res4b10_branch2b_relu"
	type: "ReLU"
}

layer {
	bottom: "res4b10_branch2b"
	top: "res4b10_branch2c"
	name: "res4b10_branch2c"
	type: "Convolution"
	param {
		name: "res4b10_branch2c_0"
               lr_mult: 1
               decay_mult: 1
        }
        convolution_param {
		num_output: 1024
		kernel_size: 1
		pad: 0
		stride: 1
		bias_term: false
	}
}

layer {
	bottom: "res4b10_branch2c"
	top: "res4b10_branch2c"
	name: "bn4b10_branch2c"
	type: "BatchNorm"
	batch_norm_param {
		use_global_stats: true
	}
	param {
		name: "bn4b10_branch2c_0"
	      lr_mult: 0
	}
	param {
		name: "bn4b10_branch2c_1"
	      lr_mult: 0
        }
	param {
		name: "bn4b10_branch2c_2"
	      lr_mult: 0
        }
}

layer {
	bottom: "res4b10_branch2c"
	top: "res4b10_branch2c"
	name: "scale4b10_branch2c"
	type: "Scale"
	scale_param {
		bias_term: true
	}
	param {
		name: "scale4b10_branch2c_0"
	      lr_mult: 0
	}
	param {
		name: "scale4b10_branch2c_1"
	      lr_mult: 0
	}
}

layer {
	bottom: "res4b9"
	bottom: "res4b10_branch2c"
	top: "res4b10"
	name: "res4b10"
	type: "Eltwise"
}

layer {
	bottom: "res4b10"
	top: "res4b10"
	name: "res4b10_relu"
	type: "ReLU"
}

layer {
	bottom: "res4b10"
	top: "res4b11_branch2a"
	name: "res4b11_branch2a"
	type: "Convolution"
	param {
		name: "res4b11_branch2a_0"
               lr_mult: 1
               decay_mult: 1
        }
        convolution_param {
		num_output: 256
		kernel_size: 1
		pad: 0
		stride: 1
		bias_term: false
	}
}

layer {
	bottom: "res4b11_branch2a"
	top: "res4b11_branch2a"
	name: "bn4b11_branch2a"
	type: "BatchNorm"
	batch_norm_param {
		use_global_stats: true
	}
	param {
		name: "bn4b11_branch2a_0"
	      lr_mult: 0
	}
	param {
		name: "bn4b11_branch2a_1"
	      lr_mult: 0
        }
	param {
		name: "bn4b11_branch2a_2"
	      lr_mult: 0
        }
}

layer {
	bottom: "res4b11_branch2a"
	top: "res4b11_branch2a"
	name: "scale4b11_branch2a"
	type: "Scale"
	scale_param {
		bias_term: true
	}
	param {
		name: "scale4b11_branch2a_0"
	      lr_mult: 0
	}
	param {
		name: "scale4b11_branch2a_1"
	      lr_mult: 0
	}
}

layer {
	top: "res4b11_branch2a"
	bottom: "res4b11_branch2a"
	name: "res4b11_branch2a_relu"
	type: "ReLU"
}

layer {
	bottom: "res4b11_branch2a"
	top: "res4b11_branch2b"
	name: "res4b11_branch2b"
	type: "Convolution"
	param {
		name: "res4b11_branch2b_0"
               lr_mult: 1
               decay_mult: 1
        }
        convolution_param {
		num_output: 256
		kernel_size: 3
		pad: 2
		dilation: 2
		stride: 1
		bias_term: false
	}
}

layer {
	bottom: "res4b11_branch2b"
	top: "res4b11_branch2b"
	name: "bn4b11_branch2b"
	type: "BatchNorm"
	batch_norm_param {
		use_global_stats: true
	}
	param {
		name: "bn4b11_branch2b_0"
	      lr_mult: 0
	}
	param {
		name: "bn4b11_branch2b_1"
	      lr_mult: 0
        }
	param {
		name: "bn4b11_branch2b_2"
	      lr_mult: 0
        }
}

layer {
	bottom: "res4b11_branch2b"
	top: "res4b11_branch2b"
	name: "scale4b11_branch2b"
	type: "Scale"
	scale_param {
		bias_term: true
	}
	param {
		name: "scale4b11_branch2b_0"
	      lr_mult: 0
	}
	param {
		name: "scale4b11_branch2b_1"
	      lr_mult: 0
	}
}

layer {
	top: "res4b11_branch2b"
	bottom: "res4b11_branch2b"
	name: "res4b11_branch2b_relu"
	type: "ReLU"
}

layer {
	bottom: "res4b11_branch2b"
	top: "res4b11_branch2c"
	name: "res4b11_branch2c"
	type: "Convolution"
	param {
		name: "res4b11_branch2c_0"
               lr_mult: 1
               decay_mult: 1
        }
        convolution_param {
		num_output: 1024
		kernel_size: 1
		pad: 0
		stride: 1
		bias_term: false
	}
}

layer {
	bottom: "res4b11_branch2c"
	top: "res4b11_branch2c"
	name: "bn4b11_branch2c"
	type: "BatchNorm"
	batch_norm_param {
		use_global_stats: true
	}
	param {
		name: "bn4b11_branch2c_0"
	      lr_mult: 0
	}
	param {
		name: "bn4b11_branch2c_1"
	      lr_mult: 0
        }
	param {
		name: "bn4b11_branch2c_2"
	      lr_mult: 0
        }
}

layer {
	bottom: "res4b11_branch2c"
	top: "res4b11_branch2c"
	name: "scale4b11_branch2c"
	type: "Scale"
	scale_param {
		bias_term: true
	}
	param {
		name: "scale4b11_branch2c_0"
	      lr_mult: 0
	}
	param {
		name: "scale4b11_branch2c_1"
	      lr_mult: 0
	}
}

layer {
	bottom: "res4b10"
	bottom: "res4b11_branch2c"
	top: "res4b11"
	name: "res4b11"
	type: "Eltwise"
}

layer {
	bottom: "res4b11"
	top: "res4b11"
	name: "res4b11_relu"
	type: "ReLU"
}

layer {
	bottom: "res4b11"
	top: "res4b12_branch2a"
	name: "res4b12_branch2a"
	type: "Convolution"
	param {
		name: "res4b12_branch2a_0"
               lr_mult: 1
               decay_mult: 1
        }
        convolution_param {
		num_output: 256
		kernel_size: 1
		pad: 0
		stride: 1
		bias_term: false
	}
}

layer {
	bottom: "res4b12_branch2a"
	top: "res4b12_branch2a"
	name: "bn4b12_branch2a"
	type: "BatchNorm"
	batch_norm_param {
		use_global_stats: true
	}
	param {
		name: "bn4b12_branch2a_0"
	      lr_mult: 0
	}
	param {
		name: "bn4b12_branch2a_1"
	      lr_mult: 0
        }
	param {
		name: "bn4b12_branch2a_2"
	      lr_mult: 0
        }
}

layer {
	bottom: "res4b12_branch2a"
	top: "res4b12_branch2a"
	name: "scale4b12_branch2a"
	type: "Scale"
	scale_param {
		bias_term: true
	}
	param {
		name: "scale4b12_branch2a_0"
	      lr_mult: 0
	}
	param {
		name: "scale4b12_branch2a_1"
	      lr_mult: 0
	}
}

layer {
	top: "res4b12_branch2a"
	bottom: "res4b12_branch2a"
	name: "res4b12_branch2a_relu"
	type: "ReLU"
}

layer {
	bottom: "res4b12_branch2a"
	top: "res4b12_branch2b"
	name: "res4b12_branch2b"
	type: "Convolution"
	param {
		name: "res4b12_branch2b_0"
               lr_mult: 1
               decay_mult: 1
        }
        convolution_param {
		num_output: 256
		kernel_size: 3
		pad: 2
		dilation: 2
		stride: 1
		bias_term: false
	}
}

layer {
	bottom: "res4b12_branch2b"
	top: "res4b12_branch2b"
	name: "bn4b12_branch2b"
	type: "BatchNorm"
	batch_norm_param {
		use_global_stats: true
	}
	param {
		name: "bn4b12_branch2b_0"
	      lr_mult: 0
	}
	param {
		name: "bn4b12_branch2b_1"
	      lr_mult: 0
        }
	param {
		name: "bn4b12_branch2b_2"
	      lr_mult: 0
        }
}

layer {
	bottom: "res4b12_branch2b"
	top: "res4b12_branch2b"
	name: "scale4b12_branch2b"
	type: "Scale"
	scale_param {
		bias_term: true
	}
	param {
		name: "scale4b12_branch2b_0"
	      lr_mult: 0
	}
	param {
		name: "scale4b12_branch2b_1"
	      lr_mult: 0
	}
}

layer {
	top: "res4b12_branch2b"
	bottom: "res4b12_branch2b"
	name: "res4b12_branch2b_relu"
	type: "ReLU"
}

layer {
	bottom: "res4b12_branch2b"
	top: "res4b12_branch2c"
	name: "res4b12_branch2c"
	type: "Convolution"
	param {
		name: "res4b12_branch2c_0"
               lr_mult: 1
               decay_mult: 1
        }
        convolution_param {
		num_output: 1024
		kernel_size: 1
		pad: 0
		stride: 1
		bias_term: false
	}
}

layer {
	bottom: "res4b12_branch2c"
	top: "res4b12_branch2c"
	name: "bn4b12_branch2c"
	type: "BatchNorm"
	batch_norm_param {
		use_global_stats: true
	}
	param {
		name: "bn4b12_branch2c_0"
	      lr_mult: 0
	}
	param {
		name: "bn4b12_branch2c_1"
	      lr_mult: 0
        }
	param {
		name: "bn4b12_branch2c_2"
	      lr_mult: 0
        }
}

layer {
	bottom: "res4b12_branch2c"
	top: "res4b12_branch2c"
	name: "scale4b12_branch2c"
	type: "Scale"
	scale_param {
		bias_term: true
	}
	param {
		name: "scale4b12_branch2c_0"
	      lr_mult: 0
	}
	param {
		name: "scale4b12_branch2c_1"
	      lr_mult: 0
	}
}

layer {
	bottom: "res4b11"
	bottom: "res4b12_branch2c"
	top: "res4b12"
	name: "res4b12"
	type: "Eltwise"
}

layer {
	bottom: "res4b12"
	top: "res4b12"
	name: "res4b12_relu"
	type: "ReLU"
}

layer {
	bottom: "res4b12"
	top: "res4b13_branch2a"
	name: "res4b13_branch2a"
	type: "Convolution"
	param {
		name: "res4b13_branch2a_0"
               lr_mult: 1
               decay_mult: 1
        }
        convolution_param {
		num_output: 256
		kernel_size: 1
		pad: 0
		stride: 1
		bias_term: false
	}
}

layer {
	bottom: "res4b13_branch2a"
	top: "res4b13_branch2a"
	name: "bn4b13_branch2a"
	type: "BatchNorm"
	batch_norm_param {
		use_global_stats: true
	}
	param {
		name: "bn4b13_branch2a_0"
	      lr_mult: 0
	}
	param {
		name: "bn4b13_branch2a_1"
	      lr_mult: 0
        }
	param {
		name: "bn4b13_branch2a_2"
	      lr_mult: 0
        }
}

layer {
	bottom: "res4b13_branch2a"
	top: "res4b13_branch2a"
	name: "scale4b13_branch2a"
	type: "Scale"
	scale_param {
		bias_term: true
	}
	param {
		name: "scale4b13_branch2a_0"
	      lr_mult: 0
	}
	param {
		name: "scale4b13_branch2a_1"
	      lr_mult: 0
	}
}

layer {
	top: "res4b13_branch2a"
	bottom: "res4b13_branch2a"
	name: "res4b13_branch2a_relu"
	type: "ReLU"
}

layer {
	bottom: "res4b13_branch2a"
	top: "res4b13_branch2b"
	name: "res4b13_branch2b"
	type: "Convolution"
	param {
		name: "res4b13_branch2b_0"
               lr_mult: 1
               decay_mult: 1
        }
        convolution_param {
		num_output: 256
		kernel_size: 3
		pad: 2
		dilation: 2
		stride: 1
		bias_term: false
	}
}

layer {
	bottom: "res4b13_branch2b"
	top: "res4b13_branch2b"
	name: "bn4b13_branch2b"
	type: "BatchNorm"
	batch_norm_param {
		use_global_stats: true
	}
	param {
		name: "bn4b13_branch2b_0"
	      lr_mult: 0
	}
	param {
		name: "bn4b13_branch2b_1"
	      lr_mult: 0
        }
	param {
		name: "bn4b13_branch2b_2"
	      lr_mult: 0
        }
}

layer {
	bottom: "res4b13_branch2b"
	top: "res4b13_branch2b"
	name: "scale4b13_branch2b"
	type: "Scale"
	scale_param {
		bias_term: true
	}
	param {
		name: "scale4b13_branch2b_0"
	      lr_mult: 0
	}
	param {
		name: "scale4b13_branch2b_1"
	      lr_mult: 0
	}
}

layer {
	top: "res4b13_branch2b"
	bottom: "res4b13_branch2b"
	name: "res4b13_branch2b_relu"
	type: "ReLU"
}

layer {
	bottom: "res4b13_branch2b"
	top: "res4b13_branch2c"
	name: "res4b13_branch2c"
	type: "Convolution"
	param {
		name: "res4b13_branch2c_0"
               lr_mult: 1
               decay_mult: 1
        }
        convolution_param {
		num_output: 1024
		kernel_size: 1
		pad: 0
		stride: 1
		bias_term: false
	}
}

layer {
	bottom: "res4b13_branch2c"
	top: "res4b13_branch2c"
	name: "bn4b13_branch2c"
	type: "BatchNorm"
	batch_norm_param {
		use_global_stats: true
	}
	param {
		name: "bn4b13_branch2c_0"
	      lr_mult: 0
	}
	param {
		name: "bn4b13_branch2c_1"
	      lr_mult: 0
        }
	param {
		name: "bn4b13_branch2c_2"
	      lr_mult: 0
        }
}

layer {
	bottom: "res4b13_branch2c"
	top: "res4b13_branch2c"
	name: "scale4b13_branch2c"
	type: "Scale"
	scale_param {
		bias_term: true
	}
	param {
		name: "scale4b13_branch2c_0"
	      lr_mult: 0
	}
	param {
		name: "scale4b13_branch2c_1"
	      lr_mult: 0
	}
}

layer {
	bottom: "res4b12"
	bottom: "res4b13_branch2c"
	top: "res4b13"
	name: "res4b13"
	type: "Eltwise"
}

layer {
	bottom: "res4b13"
	top: "res4b13"
	name: "res4b13_relu"
	type: "ReLU"
}

layer {
	bottom: "res4b13"
	top: "res4b14_branch2a"
	name: "res4b14_branch2a"
	type: "Convolution"
	param {
		name: "res4b14_branch2a_0"
               lr_mult: 1
               decay_mult: 1
        }
        convolution_param {
		num_output: 256
		kernel_size: 1
		pad: 0
		stride: 1
		bias_term: false
	}
}

layer {
	bottom: "res4b14_branch2a"
	top: "res4b14_branch2a"
	name: "bn4b14_branch2a"
	type: "BatchNorm"
	batch_norm_param {
		use_global_stats: true
	}
	param {
		name: "bn4b14_branch2a_0"
	      lr_mult: 0
	}
	param {
		name: "bn4b14_branch2a_1"
	      lr_mult: 0
        }
	param {
		name: "bn4b14_branch2a_2"
	      lr_mult: 0
        }
}

layer {
	bottom: "res4b14_branch2a"
	top: "res4b14_branch2a"
	name: "scale4b14_branch2a"
	type: "Scale"
	scale_param {
		bias_term: true
	}
	param {
		name: "scale4b14_branch2a_0"
	      lr_mult: 0
	}
	param {
		name: "scale4b14_branch2a_1"
	      lr_mult: 0
	}
}

layer {
	top: "res4b14_branch2a"
	bottom: "res4b14_branch2a"
	name: "res4b14_branch2a_relu"
	type: "ReLU"
}

layer {
	bottom: "res4b14_branch2a"
	top: "res4b14_branch2b"
	name: "res4b14_branch2b"
	type: "Convolution"
	param {
		name: "res4b14_branch2b_0"
               lr_mult: 1
               decay_mult: 1
        }
        convolution_param {
		num_output: 256
		kernel_size: 3
		pad: 2
		dilation: 2
		stride: 1
		bias_term: false
	}
}

layer {
	bottom: "res4b14_branch2b"
	top: "res4b14_branch2b"
	name: "bn4b14_branch2b"
	type: "BatchNorm"
	batch_norm_param {
		use_global_stats: true
	}
	param {
		name: "bn4b14_branch2b_0"
	      lr_mult: 0
	}
	param {
		name: "bn4b14_branch2b_1"
	      lr_mult: 0
        }
	param {
		name: "bn4b14_branch2b_2"
	      lr_mult: 0
        }
}

layer {
	bottom: "res4b14_branch2b"
	top: "res4b14_branch2b"
	name: "scale4b14_branch2b"
	type: "Scale"
	scale_param {
		bias_term: true
	}
	param {
		name: "scale4b14_branch2b_0"
	      lr_mult: 0
	}
	param {
		name: "scale4b14_branch2b_1"
	      lr_mult: 0
	}
}

layer {
	top: "res4b14_branch2b"
	bottom: "res4b14_branch2b"
	name: "res4b14_branch2b_relu"
	type: "ReLU"
}

layer {
	bottom: "res4b14_branch2b"
	top: "res4b14_branch2c"
	name: "res4b14_branch2c"
	type: "Convolution"
	param {
		name: "res4b14_branch2c_0"
               lr_mult: 1
               decay_mult: 1
        }
        convolution_param {
		num_output: 1024
		kernel_size: 1
		pad: 0
		stride: 1
		bias_term: false
	}
}

layer {
	bottom: "res4b14_branch2c"
	top: "res4b14_branch2c"
	name: "bn4b14_branch2c"
	type: "BatchNorm"
	batch_norm_param {
		use_global_stats: true
	}
	param {
		name: "bn4b14_branch2c_0"
	      lr_mult: 0
	}
	param {
		name: "bn4b14_branch2c_1"
	      lr_mult: 0
        }
	param {
		name: "bn4b14_branch2c_2"
	      lr_mult: 0
        }
}

layer {
	bottom: "res4b14_branch2c"
	top: "res4b14_branch2c"
	name: "scale4b14_branch2c"
	type: "Scale"
	scale_param {
		bias_term: true
	}
	param {
		name: "scale4b14_branch2c_0"
	      lr_mult: 0
	}
	param {
		name: "scale4b14_branch2c_1"
	      lr_mult: 0
	}
}

layer {
	bottom: "res4b13"
	bottom: "res4b14_branch2c"
	top: "res4b14"
	name: "res4b14"
	type: "Eltwise"
}

layer {
	bottom: "res4b14"
	top: "res4b14"
	name: "res4b14_relu"
	type: "ReLU"
}

layer {
	bottom: "res4b14"
	top: "res4b15_branch2a"
	name: "res4b15_branch2a"
	type: "Convolution"
	param {
		name: "res4b15_branch2a_0"
               lr_mult: 1
               decay_mult: 1
        }
        convolution_param {
		num_output: 256
		kernel_size: 1
		pad: 0
		stride: 1
		bias_term: false
	}
}

layer {
	bottom: "res4b15_branch2a"
	top: "res4b15_branch2a"
	name: "bn4b15_branch2a"
	type: "BatchNorm"
	batch_norm_param {
		use_global_stats: true
	}
	param {
		name: "bn4b15_branch2a_0"
	      lr_mult: 0
	}
	param {
		name: "bn4b15_branch2a_1"
	      lr_mult: 0
        }
	param {
		name: "bn4b15_branch2a_2"
	      lr_mult: 0
        }
}

layer {
	bottom: "res4b15_branch2a"
	top: "res4b15_branch2a"
	name: "scale4b15_branch2a"
	type: "Scale"
	scale_param {
		bias_term: true
	}
	param {
		name: "scale4b15_branch2a_0"
	      lr_mult: 0
	}
	param {
		name: "scale4b15_branch2a_1"
	      lr_mult: 0
	}
}

layer {
	top: "res4b15_branch2a"
	bottom: "res4b15_branch2a"
	name: "res4b15_branch2a_relu"
	type: "ReLU"
}

layer {
	bottom: "res4b15_branch2a"
	top: "res4b15_branch2b"
	name: "res4b15_branch2b"
	type: "Convolution"
	param {
		name: "res4b15_branch2b_0"
               lr_mult: 1
               decay_mult: 1
        }
        convolution_param {
		num_output: 256
		kernel_size: 3
		pad: 2
		dilation: 2
		stride: 1
		bias_term: false
	}
}

layer {
	bottom: "res4b15_branch2b"
	top: "res4b15_branch2b"
	name: "bn4b15_branch2b"
	type: "BatchNorm"
	batch_norm_param {
		use_global_stats: true
	}
	param {
		name: "bn4b15_branch2b_0"
	      lr_mult: 0
	}
	param {
		name: "bn4b15_branch2b_1"
	      lr_mult: 0
        }
	param {
		name: "bn4b15_branch2b_2"
	      lr_mult: 0
        }
}

layer {
	bottom: "res4b15_branch2b"
	top: "res4b15_branch2b"
	name: "scale4b15_branch2b"
	type: "Scale"
	scale_param {
		bias_term: true
	}
	param {
		name: "scale4b15_branch2b_0"
	      lr_mult: 0
	}
	param {
		name: "scale4b15_branch2b_1"
	      lr_mult: 0
	}
}

layer {
	top: "res4b15_branch2b"
	bottom: "res4b15_branch2b"
	name: "res4b15_branch2b_relu"
	type: "ReLU"
}

layer {
	bottom: "res4b15_branch2b"
	top: "res4b15_branch2c"
	name: "res4b15_branch2c"
	type: "Convolution"
	param {
		name: "res4b15_branch2c_0"
               lr_mult: 1
               decay_mult: 1
        }
        convolution_param {
		num_output: 1024
		kernel_size: 1
		pad: 0
		stride: 1
		bias_term: false
	}
}

layer {
	bottom: "res4b15_branch2c"
	top: "res4b15_branch2c"
	name: "bn4b15_branch2c"
	type: "BatchNorm"
	batch_norm_param {
		use_global_stats: true
	}
	param {
		name: "bn4b15_branch2c_0"
	      lr_mult: 0
	}
	param {
		name: "bn4b15_branch2c_1"
	      lr_mult: 0
        }
	param {
		name: "bn4b15_branch2c_2"
	      lr_mult: 0
        }
}

layer {
	bottom: "res4b15_branch2c"
	top: "res4b15_branch2c"
	name: "scale4b15_branch2c"
	type: "Scale"
	scale_param {
		bias_term: true
	}
	param {
		name: "scale4b15_branch2c_0"
	      lr_mult: 0
	}
	param {
		name: "scale4b15_branch2c_1"
	      lr_mult: 0
	}
}

layer {
	bottom: "res4b14"
	bottom: "res4b15_branch2c"
	top: "res4b15"
	name: "res4b15"
	type: "Eltwise"
}

layer {
	bottom: "res4b15"
	top: "res4b15"
	name: "res4b15_relu"
	type: "ReLU"
}

layer {
	bottom: "res4b15"
	top: "res4b16_branch2a"
	name: "res4b16_branch2a"
	type: "Convolution"
	param {
		name: "res4b16_branch2a_0"
               lr_mult: 1
               decay_mult: 1
        }
        convolution_param {
		num_output: 256
		kernel_size: 1
		pad: 0
		stride: 1
		bias_term: false
	}
}

layer {
	bottom: "res4b16_branch2a"
	top: "res4b16_branch2a"
	name: "bn4b16_branch2a"
	type: "BatchNorm"
	batch_norm_param {
		use_global_stats: true
	}
	param {
		name: "bn4b16_branch2a_0"
	      lr_mult: 0
	}
	param {
		name: "bn4b16_branch2a_1"
	      lr_mult: 0
        }
	param {
		name: "bn4b16_branch2a_2"
	      lr_mult: 0
        }
}

layer {
	bottom: "res4b16_branch2a"
	top: "res4b16_branch2a"
	name: "scale4b16_branch2a"
	type: "Scale"
	scale_param {
		bias_term: true
	}
	param {
		name: "scale4b16_branch2a_0"
	      lr_mult: 0
	}
	param {
		name: "scale4b16_branch2a_1"
	      lr_mult: 0
	}
}

layer {
	top: "res4b16_branch2a"
	bottom: "res4b16_branch2a"
	name: "res4b16_branch2a_relu"
	type: "ReLU"
}

layer {
	bottom: "res4b16_branch2a"
	top: "res4b16_branch2b"
	name: "res4b16_branch2b"
	type: "Convolution"
	param {
		name: "res4b16_branch2b_0"
               lr_mult: 1
               decay_mult: 1
        }
        convolution_param {
		num_output: 256
		kernel_size: 3
		pad: 2
		dilation: 2
		stride: 1
		bias_term: false
	}
}

layer {
	bottom: "res4b16_branch2b"
	top: "res4b16_branch2b"
	name: "bn4b16_branch2b"
	type: "BatchNorm"
	batch_norm_param {
		use_global_stats: true
	}
	param {
		name: "bn4b16_branch2b_0"
	      lr_mult: 0
	}
	param {
		name: "bn4b16_branch2b_1"
	      lr_mult: 0
        }
	param {
		name: "bn4b16_branch2b_2"
	      lr_mult: 0
        }
}

layer {
	bottom: "res4b16_branch2b"
	top: "res4b16_branch2b"
	name: "scale4b16_branch2b"
	type: "Scale"
	scale_param {
		bias_term: true
	}
	param {
		name: "scale4b16_branch2b_0"
	      lr_mult: 0
	}
	param {
		name: "scale4b16_branch2b_1"
	      lr_mult: 0
	}
}

layer {
	top: "res4b16_branch2b"
	bottom: "res4b16_branch2b"
	name: "res4b16_branch2b_relu"
	type: "ReLU"
}

layer {
	bottom: "res4b16_branch2b"
	top: "res4b16_branch2c"
	name: "res4b16_branch2c"
	type: "Convolution"
	param {
		name: "res4b16_branch2c_0"
               lr_mult: 1
               decay_mult: 1
        }
        convolution_param {
		num_output: 1024
		kernel_size: 1
		pad: 0
		stride: 1
		bias_term: false
	}
}

layer {
	bottom: "res4b16_branch2c"
	top: "res4b16_branch2c"
	name: "bn4b16_branch2c"
	type: "BatchNorm"
	batch_norm_param {
		use_global_stats: true
	}
	param {
		name: "bn4b16_branch2c_0"
	      lr_mult: 0
	}
	param {
		name: "bn4b16_branch2c_1"
	      lr_mult: 0
        }
	param {
		name: "bn4b16_branch2c_2"
	      lr_mult: 0
        }
}

layer {
	bottom: "res4b16_branch2c"
	top: "res4b16_branch2c"
	name: "scale4b16_branch2c"
	type: "Scale"
	scale_param {
		bias_term: true
	}
	param {
		name: "scale4b16_branch2c_0"
	      lr_mult: 0
	}
	param {
		name: "scale4b16_branch2c_1"
	      lr_mult: 0
	}
}

layer {
	bottom: "res4b15"
	bottom: "res4b16_branch2c"
	top: "res4b16"
	name: "res4b16"
	type: "Eltwise"
}

layer {
	bottom: "res4b16"
	top: "res4b16"
	name: "res4b16_relu"
	type: "ReLU"
}

layer {
	bottom: "res4b16"
	top: "res4b17_branch2a"
	name: "res4b17_branch2a"
	type: "Convolution"
	param {
		name: "res4b17_branch2a_0"
               lr_mult: 1
               decay_mult: 1
        }
        convolution_param {
		num_output: 256
		kernel_size: 1
		pad: 0
		stride: 1
		bias_term: false
	}
}

layer {
	bottom: "res4b17_branch2a"
	top: "res4b17_branch2a"
	name: "bn4b17_branch2a"
	type: "BatchNorm"
	batch_norm_param {
		use_global_stats: true
	}
	param {
		name: "bn4b17_branch2a_0"
	      lr_mult: 0
	}
	param {
		name: "bn4b17_branch2a_1"
	      lr_mult: 0
        }
	param {
		name: "bn4b17_branch2a_2"
	      lr_mult: 0
        }
}

layer {
	bottom: "res4b17_branch2a"
	top: "res4b17_branch2a"
	name: "scale4b17_branch2a"
	type: "Scale"
	scale_param {
		bias_term: true
	}
	param {
		name: "scale4b17_branch2a_0"
	      lr_mult: 0
	}
	param {
		name: "scale4b17_branch2a_1"
	      lr_mult: 0
	}
}

layer {
	top: "res4b17_branch2a"
	bottom: "res4b17_branch2a"
	name: "res4b17_branch2a_relu"
	type: "ReLU"
}

layer {
	bottom: "res4b17_branch2a"
	top: "res4b17_branch2b"
	name: "res4b17_branch2b"
	type: "Convolution"
	param {
		name: "res4b17_branch2b_0"
               lr_mult: 1
               decay_mult: 1
        }
        convolution_param {
		num_output: 256
		kernel_size: 3
		pad: 2
		dilation: 2
		stride: 1
		bias_term: false
	}
}

layer {
	bottom: "res4b17_branch2b"
	top: "res4b17_branch2b"
	name: "bn4b17_branch2b"
	type: "BatchNorm"
	batch_norm_param {
		use_global_stats: true
	}
	param {
		name: "bn4b17_branch2b_0"
	      lr_mult: 0
	}
	param {
		name: "bn4b17_branch2b_1"
	      lr_mult: 0
        }
	param {
		name: "bn4b17_branch2b_2"
	      lr_mult: 0
        }
}

layer {
	bottom: "res4b17_branch2b"
	top: "res4b17_branch2b"
	name: "scale4b17_branch2b"
	type: "Scale"
	scale_param {
		bias_term: true
	}
	param {
		name: "scale4b17_branch2b_0"
	      lr_mult: 0
	}
	param {
		name: "scale4b17_branch2b_1"
	      lr_mult: 0
	}
}

layer {
	top: "res4b17_branch2b"
	bottom: "res4b17_branch2b"
	name: "res4b17_branch2b_relu"
	type: "ReLU"
}

layer {
	bottom: "res4b17_branch2b"
	top: "res4b17_branch2c"
	name: "res4b17_branch2c"
	type: "Convolution"
	param {
		name: "res4b17_branch2c_0"
               lr_mult: 1
               decay_mult: 1
        }
        convolution_param {
		num_output: 1024
		kernel_size: 1
		pad: 0
		stride: 1
		bias_term: false
	}
}

layer {
	bottom: "res4b17_branch2c"
	top: "res4b17_branch2c"
	name: "bn4b17_branch2c"
	type: "BatchNorm"
	batch_norm_param {
		use_global_stats: true
	}
	param {
		name: "bn4b17_branch2c_0"
	      lr_mult: 0
	}
	param {
		name: "bn4b17_branch2c_1"
	      lr_mult: 0
        }
	param {
		name: "bn4b17_branch2c_2"
	      lr_mult: 0
        }
}

layer {
	bottom: "res4b17_branch2c"
	top: "res4b17_branch2c"
	name: "scale4b17_branch2c"
	type: "Scale"
	scale_param {
		bias_term: true
	}
	param {
		name: "scale4b17_branch2c_0"
	      lr_mult: 0
	}
	param {
		name: "scale4b17_branch2c_1"
	      lr_mult: 0
	}
}

layer {
	bottom: "res4b16"
	bottom: "res4b17_branch2c"
	top: "res4b17"
	name: "res4b17"
	type: "Eltwise"
}

layer {
	bottom: "res4b17"
	top: "res4b17"
	name: "res4b17_relu"
	type: "ReLU"
}

layer {
	bottom: "res4b17"
	top: "res4b18_branch2a"
	name: "res4b18_branch2a"
	type: "Convolution"
	param {
		name: "res4b18_branch2a_0"
               lr_mult: 1
               decay_mult: 1
        }
        convolution_param {
		num_output: 256
		kernel_size: 1
		pad: 0
		stride: 1
		bias_term: false
	}
}

layer {
	bottom: "res4b18_branch2a"
	top: "res4b18_branch2a"
	name: "bn4b18_branch2a"
	type: "BatchNorm"
	batch_norm_param {
		use_global_stats: true
	}
	param {
		name: "bn4b18_branch2a_0"
	      lr_mult: 0
	}
	param {
		name: "bn4b18_branch2a_1"
	      lr_mult: 0
        }
	param {
		name: "bn4b18_branch2a_2"
	      lr_mult: 0
        }
}

layer {
	bottom: "res4b18_branch2a"
	top: "res4b18_branch2a"
	name: "scale4b18_branch2a"
	type: "Scale"
	scale_param {
		bias_term: true
	}
	param {
		name: "scale4b18_branch2a_0"
	      lr_mult: 0
	}
	param {
		name: "scale4b18_branch2a_1"
	      lr_mult: 0
	}
}

layer {
	top: "res4b18_branch2a"
	bottom: "res4b18_branch2a"
	name: "res4b18_branch2a_relu"
	type: "ReLU"
}

layer {
	bottom: "res4b18_branch2a"
	top: "res4b18_branch2b"
	name: "res4b18_branch2b"
	type: "Convolution"
	param {
		name: "res4b18_branch2b_0"
               lr_mult: 1
               decay_mult: 1
        }
        convolution_param {
		num_output: 256
		kernel_size: 3
		pad: 2
		dilation: 2
		stride: 1
		bias_term: false
	}
}

layer {
	bottom: "res4b18_branch2b"
	top: "res4b18_branch2b"
	name: "bn4b18_branch2b"
	type: "BatchNorm"
	batch_norm_param {
		use_global_stats: true
	}
	param {
		name: "bn4b18_branch2b_0"
	      lr_mult: 0
	}
	param {
		name: "bn4b18_branch2b_1"
	      lr_mult: 0
        }
	param {
		name: "bn4b18_branch2b_2"
	      lr_mult: 0
        }
}

layer {
	bottom: "res4b18_branch2b"
	top: "res4b18_branch2b"
	name: "scale4b18_branch2b"
	type: "Scale"
	scale_param {
		bias_term: true
	}
	param {
		name: "scale4b18_branch2b_0"
	      lr_mult: 0
	}
	param {
		name: "scale4b18_branch2b_1"
	      lr_mult: 0
	}
}

layer {
	top: "res4b18_branch2b"
	bottom: "res4b18_branch2b"
	name: "res4b18_branch2b_relu"
	type: "ReLU"
}

layer {
	bottom: "res4b18_branch2b"
	top: "res4b18_branch2c"
	name: "res4b18_branch2c"
	type: "Convolution"
	param {
		name: "res4b18_branch2c_0"
               lr_mult: 1
               decay_mult: 1
        }
        convolution_param {
		num_output: 1024
		kernel_size: 1
		pad: 0
		stride: 1
		bias_term: false
	}
}

layer {
	bottom: "res4b18_branch2c"
	top: "res4b18_branch2c"
	name: "bn4b18_branch2c"
	type: "BatchNorm"
	batch_norm_param {
		use_global_stats: true
	}
	param {
		name: "bn4b18_branch2c_0"
	      lr_mult: 0
	}
	param {
		name: "bn4b18_branch2c_1"
	      lr_mult: 0
        }
	param {
		name: "bn4b18_branch2c_2"
	      lr_mult: 0
        }
}

layer {
	bottom: "res4b18_branch2c"
	top: "res4b18_branch2c"
	name: "scale4b18_branch2c"
	type: "Scale"
	scale_param {
		bias_term: true
	}
	param {
		name: "scale4b18_branch2c_0"
	      lr_mult: 0
	}
	param {
		name: "scale4b18_branch2c_1"
	      lr_mult: 0
	}
}

layer {
	bottom: "res4b17"
	bottom: "res4b18_branch2c"
	top: "res4b18"
	name: "res4b18"
	type: "Eltwise"
}

layer {
	bottom: "res4b18"
	top: "res4b18"
	name: "res4b18_relu"
	type: "ReLU"
}

layer {
	bottom: "res4b18"
	top: "res4b19_branch2a"
	name: "res4b19_branch2a"
	type: "Convolution"
	param {
		name: "res4b19_branch2a_0"
               lr_mult: 1
               decay_mult: 1
        }
        convolution_param {
		num_output: 256
		kernel_size: 1
		pad: 0
		stride: 1
		bias_term: false
	}
}

layer {
	bottom: "res4b19_branch2a"
	top: "res4b19_branch2a"
	name: "bn4b19_branch2a"
	type: "BatchNorm"
	batch_norm_param {
		use_global_stats: true
	}
	param {
		name: "bn4b19_branch2a_0"
	      lr_mult: 0
	}
	param {
		name: "bn4b19_branch2a_1"
	      lr_mult: 0
        }
	param {
		name: "bn4b19_branch2a_2"
	      lr_mult: 0
        }
}

layer {
	bottom: "res4b19_branch2a"
	top: "res4b19_branch2a"
	name: "scale4b19_branch2a"
	type: "Scale"
	scale_param {
		bias_term: true
	}
	param {
		name: "scale4b19_branch2a_0"
	      lr_mult: 0
	}
	param {
		name: "scale4b19_branch2a_1"
	      lr_mult: 0
	}
}

layer {
	top: "res4b19_branch2a"
	bottom: "res4b19_branch2a"
	name: "res4b19_branch2a_relu"
	type: "ReLU"
}

layer {
	bottom: "res4b19_branch2a"
	top: "res4b19_branch2b"
	name: "res4b19_branch2b"
	type: "Convolution"
	param {
		name: "res4b19_branch2b_0"
               lr_mult: 1
               decay_mult: 1
        }
        convolution_param {
		num_output: 256
		kernel_size: 3
		pad: 2
		dilation: 2
		stride: 1
		bias_term: false
	}
}

layer {
	bottom: "res4b19_branch2b"
	top: "res4b19_branch2b"
	name: "bn4b19_branch2b"
	type: "BatchNorm"
	batch_norm_param {
		use_global_stats: true
	}
	param {
		name: "bn4b19_branch2b_0"
	      lr_mult: 0
	}
	param {
		name: "bn4b19_branch2b_1"
	      lr_mult: 0
        }
	param {
		name: "bn4b19_branch2b_2"
	      lr_mult: 0
        }
}

layer {
	bottom: "res4b19_branch2b"
	top: "res4b19_branch2b"
	name: "scale4b19_branch2b"
	type: "Scale"
	scale_param {
		bias_term: true
	}
	param {
		name: "scale4b19_branch2b_0"
	      lr_mult: 0
	}
	param {
		name: "scale4b19_branch2b_1"
	      lr_mult: 0
	}
}

layer {
	top: "res4b19_branch2b"
	bottom: "res4b19_branch2b"
	name: "res4b19_branch2b_relu"
	type: "ReLU"
}

layer {
	bottom: "res4b19_branch2b"
	top: "res4b19_branch2c"
	name: "res4b19_branch2c"
	type: "Convolution"
	param {
		name: "res4b19_branch2c_0"
               lr_mult: 1
               decay_mult: 1
        }
        convolution_param {
		num_output: 1024
		kernel_size: 1
		pad: 0
		stride: 1
		bias_term: false
	}
}

layer {
	bottom: "res4b19_branch2c"
	top: "res4b19_branch2c"
	name: "bn4b19_branch2c"
	type: "BatchNorm"
	batch_norm_param {
		use_global_stats: true
	}
	param {
		name: "bn4b19_branch2c_0"
	      lr_mult: 0
	}
	param {
		name: "bn4b19_branch2c_1"
	      lr_mult: 0
        }
	param {
		name: "bn4b19_branch2c_2"
	      lr_mult: 0
        }
}

layer {
	bottom: "res4b19_branch2c"
	top: "res4b19_branch2c"
	name: "scale4b19_branch2c"
	type: "Scale"
	scale_param {
		bias_term: true
	}
	param {
		name: "scale4b19_branch2c_0"
	      lr_mult: 0
	}
	param {
		name: "scale4b19_branch2c_1"
	      lr_mult: 0
	}
}

layer {
	bottom: "res4b18"
	bottom: "res4b19_branch2c"
	top: "res4b19"
	name: "res4b19"
	type: "Eltwise"
}

layer {
	bottom: "res4b19"
	top: "res4b19"
	name: "res4b19_relu"
	type: "ReLU"
}

layer {
	bottom: "res4b19"
	top: "res4b20_branch2a"
	name: "res4b20_branch2a"
	type: "Convolution"
	param {
		name: "res4b20_branch2a_0"
               lr_mult: 1
               decay_mult: 1
        }
        convolution_param {
		num_output: 256
		kernel_size: 1
		pad: 0
		stride: 1
		bias_term: false
	}
}

layer {
	bottom: "res4b20_branch2a"
	top: "res4b20_branch2a"
	name: "bn4b20_branch2a"
	type: "BatchNorm"
	batch_norm_param {
		use_global_stats: true
	}
	param {
		name: "bn4b20_branch2a_0"
	      lr_mult: 0
	}
	param {
		name: "bn4b20_branch2a_1"
	      lr_mult: 0
        }
	param {
		name: "bn4b20_branch2a_2"
	      lr_mult: 0
        }
}

layer {
	bottom: "res4b20_branch2a"
	top: "res4b20_branch2a"
	name: "scale4b20_branch2a"
	type: "Scale"
	scale_param {
		bias_term: true
	}
	param {
		name: "scale4b20_branch2a_0"
	      lr_mult: 0
	}
	param {
		name: "scale4b20_branch2a_1"
	      lr_mult: 0
	}
}

layer {
	top: "res4b20_branch2a"
	bottom: "res4b20_branch2a"
	name: "res4b20_branch2a_relu"
	type: "ReLU"
}

layer {
	bottom: "res4b20_branch2a"
	top: "res4b20_branch2b"
	name: "res4b20_branch2b"
	type: "Convolution"
	param {
		name: "res4b20_branch2b_0"
               lr_mult: 1
               decay_mult: 1
        }
        convolution_param {
		num_output: 256
		kernel_size: 3
		pad: 2
		dilation: 2
		stride: 1
		bias_term: false
	}
}

layer {
	bottom: "res4b20_branch2b"
	top: "res4b20_branch2b"
	name: "bn4b20_branch2b"
	type: "BatchNorm"
	batch_norm_param {
		use_global_stats: true
	}
	param {
		name: "bn4b20_branch2b_0"
	      lr_mult: 0
	}
	param {
		name: "bn4b20_branch2b_1"
	      lr_mult: 0
        }
	param {
		name: "bn4b20_branch2b_2"
	      lr_mult: 0
        }
}

layer {
	bottom: "res4b20_branch2b"
	top: "res4b20_branch2b"
	name: "scale4b20_branch2b"
	type: "Scale"
	scale_param {
		bias_term: true
	}
	param {
		name: "scale4b20_branch2b_0"
	      lr_mult: 0
	}
	param {
		name: "scale4b20_branch2b_1"
	      lr_mult: 0
	}
}

layer {
	top: "res4b20_branch2b"
	bottom: "res4b20_branch2b"
	name: "res4b20_branch2b_relu"
	type: "ReLU"
}

layer {
	bottom: "res4b20_branch2b"
	top: "res4b20_branch2c"
	name: "res4b20_branch2c"
	type: "Convolution"
	param {
		name: "res4b20_branch2c_0"
               lr_mult: 1
               decay_mult: 1
        }
        convolution_param {
		num_output: 1024
		kernel_size: 1
		pad: 0
		stride: 1
		bias_term: false
	}
}

layer {
	bottom: "res4b20_branch2c"
	top: "res4b20_branch2c"
	name: "bn4b20_branch2c"
	type: "BatchNorm"
	batch_norm_param {
		use_global_stats: true
	}
	param {
		name: "bn4b20_branch2c_0"
	      lr_mult: 0
	}
	param {
		name: "bn4b20_branch2c_1"
	      lr_mult: 0
        }
	param {
		name: "bn4b20_branch2c_2"
	      lr_mult: 0
        }
}

layer {
	bottom: "res4b20_branch2c"
	top: "res4b20_branch2c"
	name: "scale4b20_branch2c"
	type: "Scale"
	scale_param {
		bias_term: true
	}
	param {
		name: "scale4b20_branch2c_0"
	      lr_mult: 0
	}
	param {
		name: "scale4b20_branch2c_1"
	      lr_mult: 0
	}
}

layer {
	bottom: "res4b19"
	bottom: "res4b20_branch2c"
	top: "res4b20"
	name: "res4b20"
	type: "Eltwise"
}

layer {
	bottom: "res4b20"
	top: "res4b20"
	name: "res4b20_relu"
	type: "ReLU"
}

layer {
	bottom: "res4b20"
	top: "res4b21_branch2a"
	name: "res4b21_branch2a"
	type: "Convolution"
	param {
		name: "res4b21_branch2a_0"
               lr_mult: 1
               decay_mult: 1
        }
        convolution_param {
		num_output: 256
		kernel_size: 1
		pad: 0
		stride: 1
		bias_term: false
	}
}

layer {
	bottom: "res4b21_branch2a"
	top: "res4b21_branch2a"
	name: "bn4b21_branch2a"
	type: "BatchNorm"
	batch_norm_param {
		use_global_stats: true
	}
	param {
		name: "bn4b21_branch2a_0"
	      lr_mult: 0
	}
	param {
		name: "bn4b21_branch2a_1"
	      lr_mult: 0
        }
	param {
		name: "bn4b21_branch2a_2"
	      lr_mult: 0
        }
}

layer {
	bottom: "res4b21_branch2a"
	top: "res4b21_branch2a"
	name: "scale4b21_branch2a"
	type: "Scale"
	scale_param {
		bias_term: true
	}
	param {
		name: "scale4b21_branch2a_0"
	      lr_mult: 0
	}
	param {
		name: "scale4b21_branch2a_1"
	      lr_mult: 0
	}
}

layer {
	top: "res4b21_branch2a"
	bottom: "res4b21_branch2a"
	name: "res4b21_branch2a_relu"
	type: "ReLU"
}

layer {
	bottom: "res4b21_branch2a"
	top: "res4b21_branch2b"
	name: "res4b21_branch2b"
	type: "Convolution"
	param {
		name: "res4b21_branch2b_0"
               lr_mult: 1
               decay_mult: 1
        }
        convolution_param {
		num_output: 256
		kernel_size: 3
		pad: 2
		dilation: 2
		stride: 1
		bias_term: false
	}
}

layer {
	bottom: "res4b21_branch2b"
	top: "res4b21_branch2b"
	name: "bn4b21_branch2b"
	type: "BatchNorm"
	batch_norm_param {
		use_global_stats: true
	}
	param {
		name: "bn4b21_branch2b_0"
	      lr_mult: 0
	}
	param {
		name: "bn4b21_branch2b_1"
	      lr_mult: 0
        }
	param {
		name: "bn4b21_branch2b_2"
	      lr_mult: 0
        }
}

layer {
	bottom: "res4b21_branch2b"
	top: "res4b21_branch2b"
	name: "scale4b21_branch2b"
	type: "Scale"
	scale_param {
		bias_term: true
	}
	param {
		name: "scale4b21_branch2b_0"
	      lr_mult: 0
	}
	param {
		name: "scale4b21_branch2b_1"
	      lr_mult: 0
	}
}

layer {
	top: "res4b21_branch2b"
	bottom: "res4b21_branch2b"
	name: "res4b21_branch2b_relu"
	type: "ReLU"
}

layer {
	bottom: "res4b21_branch2b"
	top: "res4b21_branch2c"
	name: "res4b21_branch2c"
	type: "Convolution"
	param {
		name: "res4b21_branch2c_0"
               lr_mult: 1
               decay_mult: 1
        }
        convolution_param {
		num_output: 1024
		kernel_size: 1
		pad: 0
		stride: 1
		bias_term: false
	}
}

layer {
	bottom: "res4b21_branch2c"
	top: "res4b21_branch2c"
	name: "bn4b21_branch2c"
	type: "BatchNorm"
	batch_norm_param {
		use_global_stats: true
	}
	param {
		name: "bn4b21_branch2c_0"
	      lr_mult: 0
	}
	param {
		name: "bn4b21_branch2c_1"
	      lr_mult: 0
        }
	param {
		name: "bn4b21_branch2c_2"
	      lr_mult: 0
        }
}

layer {
	bottom: "res4b21_branch2c"
	top: "res4b21_branch2c"
	name: "scale4b21_branch2c"
	type: "Scale"
	scale_param {
		bias_term: true
	}
	param {
		name: "scale4b21_branch2c_0"
	      lr_mult: 0
	}
	param {
		name: "scale4b21_branch2c_1"
	      lr_mult: 0
	}
}

layer {
	bottom: "res4b20"
	bottom: "res4b21_branch2c"
	top: "res4b21"
	name: "res4b21"
	type: "Eltwise"
}

layer {
	bottom: "res4b21"
	top: "res4b21"
	name: "res4b21_relu"
	type: "ReLU"
}

layer {
	bottom: "res4b21"
	top: "res4b22_branch2a"
	name: "res4b22_branch2a"
	type: "Convolution"
	param {
		name: "res4b22_branch2a_0"
               lr_mult: 1
               decay_mult: 1
        }
        convolution_param {
		num_output: 256
		kernel_size: 1
		pad: 0
		stride: 1
		bias_term: false
	}
}

layer {
	bottom: "res4b22_branch2a"
	top: "res4b22_branch2a"
	name: "bn4b22_branch2a"
	type: "BatchNorm"
	batch_norm_param {
		use_global_stats: true
	}
	param {
		name: "bn4b22_branch2a_0"
	      lr_mult: 0
	}
	param {
		name: "bn4b22_branch2a_1"
	      lr_mult: 0
        }
	param {
		name: "bn4b22_branch2a_2"
	      lr_mult: 0
        }
}

layer {
	bottom: "res4b22_branch2a"
	top: "res4b22_branch2a"
	name: "scale4b22_branch2a"
	type: "Scale"
	scale_param {
		bias_term: true
	}
	param {
		name: "scale4b22_branch2a_0"
	      lr_mult: 0
	}
	param {
		name: "scale4b22_branch2a_1"
	      lr_mult: 0
	}
}

layer {
	top: "res4b22_branch2a"
	bottom: "res4b22_branch2a"
	name: "res4b22_branch2a_relu"
	type: "ReLU"
}

layer {
	bottom: "res4b22_branch2a"
	top: "res4b22_branch2b"
	name: "res4b22_branch2b"
	type: "Convolution"
	param {
		name: "res4b22_branch2b_0"
               lr_mult: 1
               decay_mult: 1
        }
        convolution_param {
		num_output: 256
		kernel_size: 3
		pad: 2
		dilation: 2
		stride: 1
		bias_term: false
	}
}

layer {
	bottom: "res4b22_branch2b"
	top: "res4b22_branch2b"
	name: "bn4b22_branch2b"
	type: "BatchNorm"
	batch_norm_param {
		use_global_stats: true
	}
	param {
		name: "bn4b22_branch2b_0"
	      lr_mult: 0
	}
	param {
		name: "bn4b22_branch2b_1"
	      lr_mult: 0
        }
	param {
		name: "bn4b22_branch2b_2"
	      lr_mult: 0
        }
}

layer {
	bottom: "res4b22_branch2b"
	top: "res4b22_branch2b"
	name: "scale4b22_branch2b"
	type: "Scale"
	scale_param {
		bias_term: true
	}
	param {
		name: "scale4b22_branch2b_0"
	      lr_mult: 0
	}
	param {
		name: "scale4b22_branch2b_1"
	      lr_mult: 0
	}
}

layer {
	top: "res4b22_branch2b"
	bottom: "res4b22_branch2b"
	name: "res4b22_branch2b_relu"
	type: "ReLU"
}

layer {
	bottom: "res4b22_branch2b"
	top: "res4b22_branch2c"
	name: "res4b22_branch2c"
	type: "Convolution"
	param {
		name: "res4b22_branch2c_0"
               lr_mult: 1
               decay_mult: 1
        }
        convolution_param {
		num_output: 1024
		kernel_size: 1
		pad: 0
		stride: 1
		bias_term: false
	}
}

layer {
	bottom: "res4b22_branch2c"
	top: "res4b22_branch2c"
	name: "bn4b22_branch2c"
	type: "BatchNorm"
	batch_norm_param {
		use_global_stats: true
	}
	param {
		name: "bn4b22_branch2c_0"
	      lr_mult: 0
	}
	param {
		name: "bn4b22_branch2c_1"
	      lr_mult: 0
        }
	param {
		name: "bn4b22_branch2c_2"
	      lr_mult: 0
        }
}

layer {
	bottom: "res4b22_branch2c"
	top: "res4b22_branch2c"
	name: "scale4b22_branch2c"
	type: "Scale"
	scale_param {
		bias_term: true
	}
	param {
		name: "scale4b22_branch2c_0"
	      lr_mult: 0
	}
	param {
		name: "scale4b22_branch2c_1"
	      lr_mult: 0
	}
}

layer {
	bottom: "res4b21"
	bottom: "res4b22_branch2c"
	top: "res4b22"
	name: "res4b22"
	type: "Eltwise"
}

layer {
	bottom: "res4b22"
	top: "res4b22"
	name: "res4b22_relu"
	type: "ReLU"
}

layer {
	bottom: "res4b22"
	top: "res5a_branch1"
	name: "res5a_branch1"
	type: "Convolution"
	param {
		name: "res5a_branch1_0"
               lr_mult: 1
               decay_mult: 1
        }
        convolution_param {
		num_output: 2048
		kernel_size: 1
		pad: 0
		stride: 1
		bias_term: false
	}
}

layer {
	bottom: "res5a_branch1"
	top: "res5a_branch1"
	name: "bn5a_branch1"
	type: "BatchNorm"
	batch_norm_param {
		use_global_stats: true
	}
	param {
		name: "bn5a_branch1_0"
	      lr_mult: 0
	}
	param {
		name: "bn5a_branch1_1"
	      lr_mult: 0
        }
	param {
		name: "bn5a_branch1_2"
	      lr_mult: 0
        }
}

layer {
	bottom: "res5a_branch1"
	top: "res5a_branch1"
	name: "scale5a_branch1"
	type: "Scale"
	scale_param {
		bias_term: true
	}
	param {
		name: "scale5a_branch1_0"
	      lr_mult: 0
	}
	param {
		name: "scale5a_branch1_1"
	      lr_mult: 0
	}
}

layer {
	bottom: "res4b22"
	top: "res5a_branch2a"
	name: "res5a_branch2a"
	type: "Convolution"
	param {
		name: "res5a_branch2a_0"
               lr_mult: 1
               decay_mult: 1
        }
        convolution_param {
		num_output: 512
		kernel_size: 1
		pad: 0
		stride: 1
		bias_term: false
	}
}

layer {
	bottom: "res5a_branch2a"
	top: "res5a_branch2a"
	name: "bn5a_branch2a"
	type: "BatchNorm"
	batch_norm_param {
		use_global_stats: true
	}
	param {
		name: "bn5a_branch2a_0"
	      lr_mult: 0
	}
	param {
		name: "bn5a_branch2a_1"
	      lr_mult: 0
        }
	param {
		name: "bn5a_branch2a_2"
	      lr_mult: 0
        }
}

layer {
	bottom: "res5a_branch2a"
	top: "res5a_branch2a"
	name: "scale5a_branch2a"
	type: "Scale"
	scale_param {
		bias_term: true
	}
	param {
		name: "scale5a_branch2a_0"
	      lr_mult: 0
	}
	param {
		name: "scale5a_branch2a_1"
	      lr_mult: 0
	}
}

layer {
	top: "res5a_branch2a"
	bottom: "res5a_branch2a"
	name: "res5a_branch2a_relu"
	type: "ReLU"
}

layer {
	bottom: "res5a_branch2a"
	top: "res5a_branch2b"
	name: "res5a_branch2b"
	type: "Convolution"
	param {
		name: "res5a_branch2b_0"
               lr_mult: 1
               decay_mult: 1
        }
        convolution_param {
		num_output: 512
		kernel_size: 3
		pad: 4
		dilation: 4
		stride: 1
		bias_term: false
	}
}

layer {
	bottom: "res5a_branch2b"
	top: "res5a_branch2b"
	name: "bn5a_branch2b"
	type: "BatchNorm"
	batch_norm_param {
		use_global_stats: true
	}
	param {
		name: "bn5a_branch2b_0"
	      lr_mult: 0
	}
	param {
		name: "bn5a_branch2b_1"
	      lr_mult: 0
        }
	param {
		name: "bn5a_branch2b_2"
	      lr_mult: 0
        }
}

layer {
	bottom: "res5a_branch2b"
	top: "res5a_branch2b"
	name: "scale5a_branch2b"
	type: "Scale"
	scale_param {
		bias_term: true
	}
	param {
		name: "scale5a_branch2b_0"
	      lr_mult: 0
	}
	param {
		name: "scale5a_branch2b_1"
	      lr_mult: 0
	}
}

layer {
	top: "res5a_branch2b"
	bottom: "res5a_branch2b"
	name: "res5a_branch2b_relu"
	type: "ReLU"
}

layer {
	bottom: "res5a_branch2b"
	top: "res5a_branch2c"
	name: "res5a_branch2c"
	type: "Convolution"
	param {
		name: "res5a_branch2c_0"
               lr_mult: 1
               decay_mult: 1
        }
        convolution_param {
		num_output: 2048
		kernel_size: 1
		pad: 0
		stride: 1
		bias_term: false
	}
}

layer {
	bottom: "res5a_branch2c"
	top: "res5a_branch2c"
	name: "bn5a_branch2c"
	type: "BatchNorm"
	batch_norm_param {
		use_global_stats: true
	}
	param {
		name: "bn5a_branch2c_0"
	      lr_mult: 0
	}
	param {
		name: "bn5a_branch2c_1"
	      lr_mult: 0
        }
	param {
		name: "bn5a_branch2c_2"
	      lr_mult: 0
        }
}

layer {
	bottom: "res5a_branch2c"
	top: "res5a_branch2c"
	name: "scale5a_branch2c"
	type: "Scale"
	scale_param {
		bias_term: true
	}
	param {
		name: "scale5a_branch2c_0"
	      lr_mult: 0
	}
	param {
		name: "scale5a_branch2c_1"
	      lr_mult: 0
	}
}

layer {
	bottom: "res5a_branch1"
	bottom: "res5a_branch2c"
	top: "res5a"
	name: "res5a"
	type: "Eltwise"
}

layer {
	bottom: "res5a"
	top: "res5a"
	name: "res5a_relu"
	type: "ReLU"
}

layer {
	bottom: "res5a"
	top: "res5b_branch2a"
	name: "res5b_branch2a"
	type: "Convolution"
	param {
		name: "res5b_branch2a_0"
               lr_mult: 1
               decay_mult: 1
        }
        convolution_param {
		num_output: 512
		kernel_size: 1
		pad: 0
		stride: 1
		bias_term: false
	}
}

layer {
	bottom: "res5b_branch2a"
	top: "res5b_branch2a"
	name: "bn5b_branch2a"
	type: "BatchNorm"
	batch_norm_param {
		use_global_stats: true
	}
	param {
		name: "bn5b_branch2a_0"
	      lr_mult: 0
	}
	param {
		name: "bn5b_branch2a_1"
	      lr_mult: 0
        }
	param {
		name: "bn5b_branch2a_2"
	      lr_mult: 0
        }
}

layer {
	bottom: "res5b_branch2a"
	top: "res5b_branch2a"
	name: "scale5b_branch2a"
	type: "Scale"
	scale_param {
		bias_term: true
	}
	param {
		name: "scale5b_branch2a_0"
	      lr_mult: 0
	}
	param {
		name: "scale5b_branch2a_1"
	      lr_mult: 0
	}
}

layer {
	top: "res5b_branch2a"
	bottom: "res5b_branch2a"
	name: "res5b_branch2a_relu"
	type: "ReLU"
}

layer {
	bottom: "res5b_branch2a"
	top: "res5b_branch2b"
	name: "res5b_branch2b"
	type: "Convolution"
	param {
		name: "res5b_branch2b_0"
               lr_mult: 1
               decay_mult: 1
        }
        convolution_param {
		num_output: 512
		kernel_size: 3
		pad: 4
		dilation: 4
		stride: 1
		bias_term: false
	}
}

layer {
	bottom: "res5b_branch2b"
	top: "res5b_branch2b"
	name: "bn5b_branch2b"
	type: "BatchNorm"
	batch_norm_param {
		use_global_stats: true
	}
	param {
		name: "bn5b_branch2b_0"
	      lr_mult: 0
	}
	param {
		name: "bn5b_branch2b_1"
	      lr_mult: 0
        }
	param {
		name: "bn5b_branch2b_2"
	      lr_mult: 0
        }
}

layer {
	bottom: "res5b_branch2b"
	top: "res5b_branch2b"
	name: "scale5b_branch2b"
	type: "Scale"
	scale_param {
		bias_term: true
	}
	param {
		name: "scale5b_branch2b_0"
	      lr_mult: 0
	}
	param {
		name: "scale5b_branch2b_1"
	      lr_mult: 0
	}
}

layer {
	top: "res5b_branch2b"
	bottom: "res5b_branch2b"
	name: "res5b_branch2b_relu"
	type: "ReLU"
}

layer {
	bottom: "res5b_branch2b"
	top: "res5b_branch2c"
	name: "res5b_branch2c"
	type: "Convolution"
	param {
		name: "res5b_branch2c_0"
               lr_mult: 1
               decay_mult: 1
        }
        convolution_param {
		num_output: 2048
		kernel_size: 1
		pad: 0
		stride: 1
		bias_term: false
	}
}

layer {
	bottom: "res5b_branch2c"
	top: "res5b_branch2c"
	name: "bn5b_branch2c"
	type: "BatchNorm"
	batch_norm_param {
		use_global_stats: true
	}
	param {
		name: "bn5b_branch2c_0"
	      lr_mult: 0
	}
	param {
		name: "bn5b_branch2c_1"
	      lr_mult: 0
        }
	param {
		name: "bn5b_branch2c_2"
	      lr_mult: 0
        }
}

layer {
	bottom: "res5b_branch2c"
	top: "res5b_branch2c"
	name: "scale5b_branch2c"
	type: "Scale"
	scale_param {
		bias_term: true
	}
	param {
		name: "scale5b_branch2c_0"
	      lr_mult: 0
	}
	param {
		name: "scale5b_branch2c_1"
	      lr_mult: 0
	}
}

layer {
	bottom: "res5a"
	bottom: "res5b_branch2c"
	top: "res5b"
	name: "res5b"
	type: "Eltwise"
}

layer {
	bottom: "res5b"
	top: "res5b"
	name: "res5b_relu"
	type: "ReLU"
}

layer {
	bottom: "res5b"
	top: "res5c_branch2a"
	name: "res5c_branch2a"
	type: "Convolution"
	param {
		name: "res5c_branch2a_0"
               lr_mult: 1
               decay_mult: 1
        }
        convolution_param {
		num_output: 512
		kernel_size: 1
		pad: 0
		stride: 1
		bias_term: false
	}
}

layer {
	bottom: "res5c_branch2a"
	top: "res5c_branch2a"
	name: "bn5c_branch2a"
	type: "BatchNorm"
	batch_norm_param {
		use_global_stats: true
	}
	param {
		name: "bn5c_branch2a_0"
	      lr_mult: 0
	}
	param {
		name: "bn5c_branch2a_1"
	      lr_mult: 0
        }
	param {
		name: "bn5c_branch2a_2"
	      lr_mult: 0
        }
}

layer {
	bottom: "res5c_branch2a"
	top: "res5c_branch2a"
	name: "scale5c_branch2a"
	type: "Scale"
	scale_param {
		bias_term: true
	}
	param {
		name: "scale5c_branch2a_0"
	      lr_mult: 0
	}
	param {
		name: "scale5c_branch2a_1"
	      lr_mult: 0
	}
}

layer {
	top: "res5c_branch2a"
	bottom: "res5c_branch2a"
	name: "res5c_branch2a_relu"
	type: "ReLU"
}

layer {
	bottom: "res5c_branch2a"
	top: "res5c_branch2b"
	name: "res5c_branch2b"
	type: "Convolution"
	param {
		name: "res5c_branch2b_0"
               lr_mult: 1
               decay_mult: 1
        }
        convolution_param {
		num_output: 512
		kernel_size: 3
		pad: 4
		dilation: 4
		stride: 1
		bias_term: false
	}
}

layer {
	bottom: "res5c_branch2b"
	top: "res5c_branch2b"
	name: "bn5c_branch2b"
	type: "BatchNorm"
	batch_norm_param {
		use_global_stats: true
	}
	param {
		name: "bn5c_branch2b_0"
	      lr_mult: 0
	}
	param {
		name: "bn5c_branch2b_1"
	      lr_mult: 0
        }
	param {
		name: "bn5c_branch2b_2"
	      lr_mult: 0
        }
}

layer {
	bottom: "res5c_branch2b"
	top: "res5c_branch2b"
	name: "scale5c_branch2b"
	type: "Scale"
	scale_param {
		bias_term: true
	}
	param {
		name: "scale5c_branch2b_0"
	      lr_mult: 0
	}
	param {
		name: "scale5c_branch2b_1"
	      lr_mult: 0
	}
}

layer {
	top: "res5c_branch2b"
	bottom: "res5c_branch2b"
	name: "res5c_branch2b_relu"
	type: "ReLU"
}

layer {
	bottom: "res5c_branch2b"
	top: "res5c_branch2c"
	name: "res5c_branch2c"
	type: "Convolution"
	param {
		name: "res5c_branch2c_0"
               lr_mult: 1
               decay_mult: 1
        }
        convolution_param {
		num_output: 2048
		kernel_size: 1
		pad: 0
		stride: 1
		bias_term: false
	}
}

layer {
	bottom: "res5c_branch2c"
	top: "res5c_branch2c"
	name: "bn5c_branch2c"
	type: "BatchNorm"
	batch_norm_param {
		use_global_stats: true
	}
	param {
		name: "bn5c_branch2c_0"
	      lr_mult: 0
	}
	param {
		name: "bn5c_branch2c_1"
	      lr_mult: 0
        }
	param {
		name: "bn5c_branch2c_2"
	      lr_mult: 0
        }
}

layer {
	bottom: "res5c_branch2c"
	top: "res5c_branch2c"
	name: "scale5c_branch2c"
	type: "Scale"
	scale_param {
		bias_term: true
	}
	param {
		name: "scale5c_branch2c_0"
	      lr_mult: 0
	}
	param {
		name: "scale5c_branch2c_1"
	      lr_mult: 0
	}
}

layer {
	bottom: "res5b"
	bottom: "res5c_branch2c"
	top: "res5c"
	name: "res5c"
	type: "Eltwise"
}

layer {
	bottom: "res5c"
	top: "res5c"
	name: "res5c_relu"
	type: "ReLU"
}


######################## res5c norm after iter 1 #######################
layer {
  bottom: "res5c"
  top: "res5c_down_1024"
  name: "res5c_down_1024"
  type: "Convolution"
  param {
    lr_mult: 10
    decay_mult: 1
    name: "res5c_down_1024_w"
  }
  param {
    lr_mult: 20
    decay_mult: 1
    name: "res5c_down_1024_b"
  }
  convolution_param {
    num_output: 1024
    kernel_size: 1
    weight_filler {
      type: "xavier"
    }
    bias_filler {
      type: "constant"
      value: 0
    }
    engine: CAFFE
  }
}
layer {
  bottom: "res5c"
  top: "res5c_down_512"
  name: "res5c_down_512"
  type: "Convolution"
  param {
    lr_mult: 10
    decay_mult: 1
    name: "res5c_down_512_w"
  }
  param {
    lr_mult: 20
    decay_mult: 1
    name: "res5c_down_512_b"
  }
  convolution_param {
    num_output: 512
    kernel_size: 1
    weight_filler {
      type: "xavier"
    }
    bias_filler {
      type: "constant"
      value: 0
    }
    engine: CAFFE
  }
}

### Feature re-scale after first time step ###
### res5c -> res4a ###
layer {
  bottom: "res5c_down_512"
  top: "res5c_res4a_norm"
  name: "res5c_res4a_norm"
  type: "Normalize"
  param {
    lr_mult: 10
    decay_mult: 1
    name: "res5c_down_512_nw"
  }
  norm_param {
    scale_filler {
      type: "constant"
      value: 1
    }
  across_spatial: false
  channel_shared: false
  fix_scale: false
  }
}
layer {
  bottom: "res5c_res4a_norm"
  top: "res5c_res4a_norm"
  name: "res5c_res4a_norm_drop"
  type: "Dropout"
  dropout_param {
    dropout_ratio: 0.3
  }
}

### res5c -> res4b9 ###
layer {
  bottom: "res5c_down_1024"
  top: "res5c_res4b9_norm"
  name: "res5c_res4b9_norm"
  type: "Normalize"
  param { 
    lr_mult: 10
    decay_mult: 1
    name: "res5c_res4b9_nw"
  }
  norm_param {
    scale_filler {
      type: "constant"
      value: 1
    }
  across_spatial: false
  channel_shared: false
  fix_scale: false
  }
}
layer {
  bottom: "res5c_res4b9_norm"
  top: "res5c_res4b9_norm"
  name: "res5c_res4b9_norm_drop"
  type: "Dropout"
  dropout_param {
    dropout_ratio: 0.3
  }
}

### res5c -> res4b17 ###
layer {
  bottom: "res5c_down_1024"
  top: "res5c_res4b17_norm"
  name: "res5c_res4b17_norm"
  type: "Normalize"
  param { 
    lr_mult: 10
    decay_mult: 1
    name: "res5c_res4b17_nw"
  }
  norm_param {
    scale_filler {
      type: "constant"
      value: 1
    }
  across_spatial: false
  channel_shared: false
  fix_scale: false
  }
}
layer {
  bottom: "res5c_res4b17_norm"
  top: "res5c_res4b17_norm"
  name: "res5c_res4b17_norm_drop"
  type: "Dropout"
  dropout_param {
    dropout_ratio: 0.3
  }
}

# res5c -> res5a #
layer {
  bottom: "res5c_down_1024"
  top: "res5c_res5a_norm"
  name: "res5c_res5a_norm"
  type: "Normalize"
  param { 
    lr_mult: 10
    decay_mult: 1
    name: "res5c_res5a_nw"
  }
  norm_param {
    scale_filler {
      type: "constant"
      value: 1
    }
  across_spatial: false
  channel_shared: false
  fix_scale: false
  }
}
layer {
  bottom: "res5c_res5a_norm"
  top: "res5c_res5a_norm"
  name: "res5c_res5a_norm_drop"
  type: "Dropout"
  dropout_param {
    dropout_ratio: 0.3
  }
}

### res5c -> res5c  ###
layer {
  bottom: "res5c"
  top: "res5c_res5c_norm"
  name: "res5c_res5c_norm"
  type: "Normalize"
  param {
    lr_mult: 10
    decay_mult: 1
    name: "res5c_nw"
  }
  norm_param {
    scale_filler {
      type: "constant"
      value: 1
    }
  across_spatial: false
  channel_shared: false
  fix_scale: false
  }
}
layer {
  bottom: "res5c_res5c_norm"
  top: "res5c_res5c_norm"
  name: "res5c_res5c_norm_drop"
  type: "Dropout"
  dropout_param {
    dropout_ratio: 0.3
  }
}


###=== run iter2 start ===###
### data prep. for res4a ###
layer {
  bottom: "res3b3"
  top: "res3b3_norm_i2"
  name: "res3b3_norm_i2"
  type: "Normalize"
  param {
    lr_mult: 10
    decay_mult: 1
    name: "res3b3_nw_i2"
  }
  norm_param {
    scale_filler {
      type: "constant"
      value: 1
    }
  across_spatial: false
  channel_shared: false
  fix_scale: false
  }
}
layer {
  bottom: "res3b3_norm_i2"
  bottom: "res5c_res4a_norm"
  top: "hyb_data_res4a_i2"
  name: "hyb_data_res4a_i2"
  type: "Eltwise"
  eltwise_param {
    operation: SUM
  }
}
### END data prep. for res4a ###

layer {
	bottom: "hyb_data_res4a_i2"
	top: "res4a_branch1_i2"
	name: "res4a_branch1_i2"
	type: "Convolution"
	param {
	       name: "res4a_branch1_0"
               lr_mult: 1
               decay_mult: 1
        }
        convolution_param {
		num_output: 1024
		kernel_size: 1
		pad: 0
		stride: 1
		bias_term: false
	}
}

layer {
	bottom: "res4a_branch1_i2"
	top: "res4a_branch1_i2"
	name: "bn4a_branch1_i2"
	type: "BatchNorm"
	batch_norm_param {
		use_global_stats: true
	}
	param {
		name: "bn4a_branch1_0"
	      lr_mult: 0
	}
	param {
		name: "bn4a_branch1_1"
	      lr_mult: 0
        }
	param {
		name: "bn4a_branch1_2"
	      lr_mult: 0
        }
}

layer {
	bottom: "res4a_branch1_i2"
	top: "res4a_branch1_i2"
	name: "scale4a_branch1_i2"
	type: "Scale"
	scale_param {
		bias_term: true
	}
	param {
		name: "scale4a_branch1_0"
	      lr_mult: 0
	}
	param {
		name: "scale4a_branch1_1"
	      lr_mult: 0
	}
}

layer {
	bottom: "hyb_data_res4a_i2"
	top: "res4a_branch2a_i2"
	name: "res4a_branch2a_i2"
	type: "Convolution"
	param {
		name: "res4a_branch2a_0"
               lr_mult: 1
               decay_mult: 1
        }
        convolution_param {
		num_output: 256
		kernel_size: 1
		pad: 0
		stride: 1
		bias_term: false
	}
}

layer {
	bottom: "res4a_branch2a_i2"
	top: "res4a_branch2a_i2"
	name: "bn4a_branch2a_i2"
	type: "BatchNorm"
	batch_norm_param {
		use_global_stats: true
	}
	param {
		name: "bn4a_branch2a_0"
	      lr_mult: 0
	}
	param {
		name: "bn4a_branch2a_1"
	      lr_mult: 0
        }
	param {
		name: "bn4a_branch2a_2"
	      lr_mult: 0
        }
}

layer {
	bottom: "res4a_branch2a_i2"
	top: "res4a_branch2a_i2"
	name: "scale4a_branch2a_i2"
	type: "Scale"
	scale_param {
		bias_term: true
	}
	param {
		name: "scale4a_branch2a_0"
	      lr_mult: 0
	}
	param {
		name: "scale4a_branch2a_1"
	      lr_mult: 0
	}
}

layer {
	top: "res4a_branch2a_i2"
	bottom: "res4a_branch2a_i2"
	name: "res4a_branch2a_relu_i2"
	type: "ReLU"
}

layer {
	bottom: "res4a_branch2a_i2"
	top: "res4a_branch2b_i2"
	name: "res4a_branch2b_i2"
	type: "Convolution"
	param {
		name: "res4a_branch2b_0"
               lr_mult: 1
               decay_mult: 1
        }
        convolution_param {
		num_output: 256
		kernel_size: 3
		pad: 2
		dilation: 2
		stride: 1
		bias_term: false
	}
}

layer {
	bottom: "res4a_branch2b_i2"
	top: "res4a_branch2b_i2"
	name: "bn4a_branch2b_i2"
	type: "BatchNorm"
	batch_norm_param {
		use_global_stats: true
	}
	param {
		name: "bn4a_branch2b_0"
	      lr_mult: 0
	}
	param {
		name: "bn4a_branch2b_1"
	      lr_mult: 0
        }
	param {
		name: "bn4a_branch2b_2"
	      lr_mult: 0
        }
}

layer {
	bottom: "res4a_branch2b_i2"
	top: "res4a_branch2b_i2"
	name: "scale4a_branch2b_i2"
	type: "Scale"
	scale_param {
		bias_term: true
	}
	param {
		name: "scale4a_branch2b_0"
	      lr_mult: 0
	}
	param {
		name: "scale4a_branch2b_1"
	      lr_mult: 0
	}
}

layer {
	top: "res4a_branch2b_i2"
	bottom: "res4a_branch2b_i2"
	name: "res4a_branch2b_relu_i2"
	type: "ReLU"
}

layer {
	bottom: "res4a_branch2b_i2"
	top: "res4a_branch2c_i2"
	name: "res4a_branch2c_i2"
	type: "Convolution"
	param {
		name: "res4a_branch2c_0"
               lr_mult: 1
               decay_mult: 1
        }
        convolution_param {
		num_output: 1024
		kernel_size: 1
		pad: 0
		stride: 1
		bias_term: false
	}
}

layer {
	bottom: "res4a_branch2c_i2"
	top: "res4a_branch2c_i2"
	name: "bn4a_branch2c_i2"
	type: "BatchNorm"
	batch_norm_param {
		use_global_stats: true
	}
	param {
		name: "bn4a_branch2c_0"
	      lr_mult: 0
	}
	param {
		name: "bn4a_branch2c_1"
	      lr_mult: 0
        }
	param {
		name: "bn4a_branch2c_2"
	      lr_mult: 0
        }
}

layer {
	bottom: "res4a_branch2c_i2"
	top: "res4a_branch2c_i2"
	name: "scale4a_branch2c_i2"
	type: "Scale"
	scale_param {
		bias_term: true
	}
	param {
		name: "scale4a_branch2c_0"
	      lr_mult: 0
	}
	param {
		name: "scale4a_branch2c_1"
	      lr_mult: 0
	}
}

layer {
	bottom: "res4a_branch1_i2"
	bottom: "res4a_branch2c_i2"
	top: "res4a_i2"
	name: "res4a_i2"
	type: "Eltwise"
}

layer {
	bottom: "res4a_i2"
	top: "res4a_i2"
	name: "res4a_relu_i2"
	type: "ReLU"
}

layer {
	bottom: "res4a_i2"
	top: "res4b1_branch2a_i2"
	name: "res4b1_branch2a_i2"
	type: "Convolution"
	param {
		name: "res4b1_branch2a_0"
               lr_mult: 1
               decay_mult: 1
        }
        convolution_param {
		num_output: 256
		kernel_size: 1
		pad: 0
		stride: 1
		bias_term: false
	}
}

layer {
	bottom: "res4b1_branch2a_i2"
	top: "res4b1_branch2a_i2"
	name: "bn4b1_branch2a_i2"
	type: "BatchNorm"
	batch_norm_param {
		use_global_stats: true
	}
	param {
		name: "bn4b1_branch2a_0"
	      lr_mult: 0
	}
	param {
		name: "bn4b1_branch2a_1"
	      lr_mult: 0
        }
	param {
		name: "bn4b1_branch2a_2"
	      lr_mult: 0
        }
}

layer {
	bottom: "res4b1_branch2a_i2"
	top: "res4b1_branch2a_i2"
	name: "scale4b1_branch2a_i2"
	type: "Scale"
	scale_param {
		bias_term: true
	}
	param {
		name: "scale4b1_branch2a_0"
	      lr_mult: 0
	}
	param {
		name: "scale4b1_branch2a_1"
	      lr_mult: 0
	}
}

layer {
	top: "res4b1_branch2a_i2"
	bottom: "res4b1_branch2a_i2"
	name: "res4b1_branch2a_relu_i2"
	type: "ReLU"
}

layer {
	bottom: "res4b1_branch2a_i2"
	top: "res4b1_branch2b_i2"
	name: "res4b1_branch2b_i2"
	type: "Convolution"
	param {
		name: "res4b1_branch2b_0"
               lr_mult: 1
               decay_mult: 1
        }
        convolution_param {
		num_output: 256
		kernel_size: 3
		pad: 2
		dilation: 2
		stride: 1
		bias_term: false
	}
}

layer {
	bottom: "res4b1_branch2b_i2"
	top: "res4b1_branch2b_i2"
	name: "bn4b1_branch2b_i2"
	type: "BatchNorm"
	batch_norm_param {
		use_global_stats: true
	}
	param {
		name: "bn4b1_branch2b_0"
	      lr_mult: 0
	}
	param {
		name: "bn4b1_branch2b_1"
	      lr_mult: 0
        }
	param {
		name: "bn4b1_branch2b_2"
	      lr_mult: 0
        }
}

layer {
	bottom: "res4b1_branch2b_i2"
	top: "res4b1_branch2b_i2"
	name: "scale4b1_branch2b_i2"
	type: "Scale"
	scale_param {
		bias_term: true
	}
	param {
		name: "scale4b1_branch2b_0"
	      lr_mult: 0
	}
	param {
		name: "scale4b1_branch2b_1"
	      lr_mult: 0
	}
}

layer {
	top: "res4b1_branch2b_i2"
	bottom: "res4b1_branch2b_i2"
	name: "res4b1_branch2b_relu_i2"
	type: "ReLU"
}

layer {
	bottom: "res4b1_branch2b_i2"
	top: "res4b1_branch2c_i2"
	name: "res4b1_branch2c_i2"
	type: "Convolution"
	param {
		name: "res4b1_branch2c_0"
               lr_mult: 1
               decay_mult: 1
        }
        convolution_param {
		num_output: 1024
		kernel_size: 1
		pad: 0
		stride: 1
		bias_term: false
	}
}

layer {
	bottom: "res4b1_branch2c_i2"
	top: "res4b1_branch2c_i2"
	name: "bn4b1_branch2c_i2"
	type: "BatchNorm"
	batch_norm_param {
		use_global_stats: true
	}
	param {
		name: "bn4b1_branch2c_0"
	      lr_mult: 0
	}
	param {
		name: "bn4b1_branch2c_1"
	      lr_mult: 0
        }
	param {
		name: "bn4b1_branch2c_2"
	      lr_mult: 0
        }
}

layer {
	bottom: "res4b1_branch2c_i2"
	top: "res4b1_branch2c_i2"
	name: "scale4b1_branch2c_i2"
	type: "Scale"
	scale_param {
		bias_term: true
	}
	param {
		name: "scale4b1_branch2c_0"
	      lr_mult: 0
	}
	param {
		name: "scale4b1_branch2c_1"
	      lr_mult: 0
	}
}

layer {
	bottom: "res4a_i2"
	bottom: "res4b1_branch2c_i2"
	top: "res4b1_i2"
	name: "res4b1_i2"
	type: "Eltwise"
}

layer {
	bottom: "res4b1_i2"
	top: "res4b1_i2"
	name: "res4b1_relu_i2"
	type: "ReLU"
}

layer {
	bottom: "res4b1_i2"
	top: "res4b2_branch2a_i2"
	name: "res4b2_branch2a_i2"
	type: "Convolution"
	param {
		name: "res4b2_branch2a_0"
               lr_mult: 1
               decay_mult: 1
        }
        convolution_param {
		num_output: 256
		kernel_size: 1
		pad: 0
		stride: 1
		bias_term: false
	}
}

layer {
	bottom: "res4b2_branch2a_i2"
	top: "res4b2_branch2a_i2"
	name: "bn4b2_branch2a_i2"
	type: "BatchNorm"
	batch_norm_param {
		use_global_stats: true
	}
	param {
		name: "bn4b2_branch2a_0"
	      lr_mult: 0
	}
	param {
		name: "bn4b2_branch2a_1"
	      lr_mult: 0
        }
	param {
		name: "bn4b2_branch2a_2"
	      lr_mult: 0
        }
}

layer {
	bottom: "res4b2_branch2a_i2"
	top: "res4b2_branch2a_i2"
	name: "scale4b2_branch2a_i2"
	type: "Scale"
	scale_param {
		bias_term: true
	}
	param {
		name: "scale4b2_branch2a_0"
	      lr_mult: 0
	}
	param {
		name: "scale4b2_branch2a_1"
	      lr_mult: 0
	}
}

layer {
	top: "res4b2_branch2a_i2"
	bottom: "res4b2_branch2a_i2"
	name: "res4b2_branch2a_relu_i2"
	type: "ReLU"
}

layer {
	bottom: "res4b2_branch2a_i2"
	top: "res4b2_branch2b_i2"
	name: "res4b2_branch2b_i2"
	type: "Convolution"
	param {
		name: "res4b2_branch2b_0"
               lr_mult: 1
               decay_mult: 1
        }
        convolution_param {
		num_output: 256
		kernel_size: 3
		pad: 2
		dilation: 2
		stride: 1
		bias_term: false
	}
}

layer {
	bottom: "res4b2_branch2b_i2"
	top: "res4b2_branch2b_i2"
	name: "bn4b2_branch2b_i2"
	type: "BatchNorm"
	batch_norm_param {
		use_global_stats: true
	}
	param {
		name: "bn4b2_branch2b_0"
	      lr_mult: 0
	}
	param {
		name: "bn4b2_branch2b_1"
	      lr_mult: 0
        }
	param {
		name: "bn4b2_branch2b_2"
	      lr_mult: 0
        }
}

layer {
	bottom: "res4b2_branch2b_i2"
	top: "res4b2_branch2b_i2"
	name: "scale4b2_branch2b_i2"
	type: "Scale"
	scale_param {
		bias_term: true
	}
	param {
		name: "scale4b2_branch2b_0"
	      lr_mult: 0
	}
	param {
		name: "scale4b2_branch2b_1"
	      lr_mult: 0
	}
}

layer {
	top: "res4b2_branch2b_i2"
	bottom: "res4b2_branch2b_i2"
	name: "res4b2_branch2b_relu_i2"
	type: "ReLU"
}

layer {
	bottom: "res4b2_branch2b_i2"
	top: "res4b2_branch2c_i2"
	name: "res4b2_branch2c_i2"
	type: "Convolution"
	param {
		name: "res4b2_branch2c_0"
               lr_mult: 1
               decay_mult: 1
        }
        convolution_param {
		num_output: 1024
		kernel_size: 1
		pad: 0
		stride: 1
		bias_term: false
	}
}

layer {
	bottom: "res4b2_branch2c_i2"
	top: "res4b2_branch2c_i2"
	name: "bn4b2_branch2c_i2"
	type: "BatchNorm"
	batch_norm_param {
		use_global_stats: true
	}
	param {
		name: "bn4b2_branch2c_0"
	      lr_mult: 0
	}
	param {
		name: "bn4b2_branch2c_1"
	      lr_mult: 0
        }
	param {
		name: "bn4b2_branch2c_2"
	      lr_mult: 0
        }
}

layer {
	bottom: "res4b2_branch2c_i2"
	top: "res4b2_branch2c_i2"
	name: "scale4b2_branch2c_i2"
	type: "Scale"
	scale_param {
		bias_term: true
	}
	param {
		name: "scale4b2_branch2c_0"
	      lr_mult: 0
	}
	param {
		name: "scale4b2_branch2c_1"
	      lr_mult: 0
	}
}

layer {
	bottom: "res4b1_i2"
	bottom: "res4b2_branch2c_i2"
	top: "res4b2_i2"
	name: "res4b2_i2"
	type: "Eltwise"
}

layer {
	bottom: "res4b2_i2"
	top: "res4b2_i2"
	name: "res4b2_relu_i2"
	type: "ReLU"
}

layer {
	bottom: "res4b2_i2"
	top: "res4b3_branch2a_i2"
	name: "res4b3_branch2a_i2"
	type: "Convolution"
	param {
		name: "res4b3_branch2a_0"
               lr_mult: 1
               decay_mult: 1
        }
        convolution_param {
		num_output: 256
		kernel_size: 1
		pad: 0
		stride: 1
		bias_term: false
	}
}

layer {
	bottom: "res4b3_branch2a_i2"
	top: "res4b3_branch2a_i2"
	name: "bn4b3_branch2a_i2"
	type: "BatchNorm"
	batch_norm_param {
		use_global_stats: true
	}
	param {
		name: "bn4b3_branch2a_0"
	      lr_mult: 0
	}
	param {
		name: "bn4b3_branch2a_1"
	      lr_mult: 0
        }
	param {
		name: "bn4b3_branch2a_2"
	      lr_mult: 0
        }
}

layer {
	bottom: "res4b3_branch2a_i2"
	top: "res4b3_branch2a_i2"
	name: "scale4b3_branch2a_i2"
	type: "Scale"
	scale_param {
		bias_term: true
	}
	param {
		name: "scale4b3_branch2a_0"
	      lr_mult: 0
	}
	param {
		name: "scale4b3_branch2a_1"
	      lr_mult: 0
	}
}

layer {
	top: "res4b3_branch2a_i2"
	bottom: "res4b3_branch2a_i2"
	name: "res4b3_branch2a_relu_i2"
	type: "ReLU"
}

layer {
	bottom: "res4b3_branch2a_i2"
	top: "res4b3_branch2b_i2"
	name: "res4b3_branch2b_i2"
	type: "Convolution"
	param {
		name: "res4b3_branch2b_0"
               lr_mult: 1
               decay_mult: 1
        }
        convolution_param {
		num_output: 256
		kernel_size: 3
		pad: 2
		dilation: 2
		stride: 1
		bias_term: false
	}
}

layer {
	bottom: "res4b3_branch2b_i2"
	top: "res4b3_branch2b_i2"
	name: "bn4b3_branch2b_i2"
	type: "BatchNorm"
	batch_norm_param {
		use_global_stats: true
	}
	param {
		name: "bn4b3_branch2b_0"
	      lr_mult: 0
	}
	param {
		name: "bn4b3_branch2b_1"
	      lr_mult: 0
        }
	param {
		name: "bn4b3_branch2b_2"
	      lr_mult: 0
        }
}

layer {
	bottom: "res4b3_branch2b_i2"
	top: "res4b3_branch2b_i2"
	name: "scale4b3_branch2b_i2"
	type: "Scale"
	scale_param {
		bias_term: true
	}
	param {
		name: "scale4b3_branch2b_0"
	      lr_mult: 0
	}
	param {
		name: "scale4b3_branch2b_1"
	      lr_mult: 0
	}
}

layer {
	top: "res4b3_branch2b_i2"
	bottom: "res4b3_branch2b_i2"
	name: "res4b3_branch2b_relu_i2"
	type: "ReLU"
}

layer {
	bottom: "res4b3_branch2b_i2"
	top: "res4b3_branch2c_i2"
	name: "res4b3_branch2c_i2"
	type: "Convolution"
	param {
		name: "res4b3_branch2c_0"
               lr_mult: 1
               decay_mult: 1
        }
        convolution_param {
		num_output: 1024
		kernel_size: 1
		pad: 0
		stride: 1
		bias_term: false
	}
}

layer {
	bottom: "res4b3_branch2c_i2"
	top: "res4b3_branch2c_i2"
	name: "bn4b3_branch2c_i2"
	type: "BatchNorm"
	batch_norm_param {
		use_global_stats: true
	}
	param {
		name: "bn4b3_branch2c_0"
	      lr_mult: 0
	}
	param {
		name: "bn4b3_branch2c_1"
	      lr_mult: 0
        }
	param {
		name: "bn4b3_branch2c_2"
	      lr_mult: 0
        }
}

layer {
	bottom: "res4b3_branch2c_i2"
	top: "res4b3_branch2c_i2"
	name: "scale4b3_branch2c_i2"
	type: "Scale"
	scale_param {
		bias_term: true
	}
	param {
		name: "scale4b3_branch2c_0"
	      lr_mult: 0
	}
	param {
		name: "scale4b3_branch2c_1"
	      lr_mult: 0
	}
}

layer {
	bottom: "res4b2_i2"
	bottom: "res4b3_branch2c_i2"
	top: "res4b3_i2"
	name: "res4b3_i2"
	type: "Eltwise"
}

layer {
	bottom: "res4b3_i2"
	top: "res4b3_i2"
	name: "res4b3_relu_i2"
	type: "ReLU"
}

layer {
	bottom: "res4b3_i2"
	top: "res4b4_branch2a_i2"
	name: "res4b4_branch2a_i2"
	type: "Convolution"
	param {
		name: "res4b4_branch2a_0"
               lr_mult: 1
               decay_mult: 1
        }
        convolution_param {
		num_output: 256
		kernel_size: 1
		pad: 0
		stride: 1
		bias_term: false
	}
}

layer {
	bottom: "res4b4_branch2a_i2"
	top: "res4b4_branch2a_i2"
	name: "bn4b4_branch2a_i2"
	type: "BatchNorm"
	batch_norm_param {
		use_global_stats: true
	}
	param {
		name: "bn4b4_branch2a_0"
	      lr_mult: 0
	}
	param {
		name: "bn4b4_branch2a_1"
	      lr_mult: 0
        }
	param {
		name: "bn4b4_branch2a_2"
	      lr_mult: 0
        }
}

layer {
	bottom: "res4b4_branch2a_i2"
	top: "res4b4_branch2a_i2"
	name: "scale4b4_branch2a_i2"
	type: "Scale"
	scale_param {
		bias_term: true
	}
	param {
		name: "scale4b4_branch2a_0"
	      lr_mult: 0
	}
	param {
		name: "scale4b4_branch2a_1"
	      lr_mult: 0
	}
}

layer {
	top: "res4b4_branch2a_i2"
	bottom: "res4b4_branch2a_i2"
	name: "res4b4_branch2a_relu_i2"
	type: "ReLU"
}

layer {
	bottom: "res4b4_branch2a_i2"
	top: "res4b4_branch2b_i2"
	name: "res4b4_branch2b_i2"
	type: "Convolution"
	param {
		name: "res4b4_branch2b_0"
               lr_mult: 1
               decay_mult: 1
        }
        convolution_param {
		num_output: 256
		kernel_size: 3
		pad: 2
		dilation: 2
		stride: 1
		bias_term: false
	}
}

layer {
	bottom: "res4b4_branch2b_i2"
	top: "res4b4_branch2b_i2"
	name: "bn4b4_branch2b_i2"
	type: "BatchNorm"
	batch_norm_param {
		use_global_stats: true
	}
	param {
		name: "bn4b4_branch2b_0"
	      lr_mult: 0
	}
	param {
		name: "bn4b4_branch2b_1"
	      lr_mult: 0
        }
	param {
		name: "bn4b4_branch2b_2"
	      lr_mult: 0
        }
}

layer {
	bottom: "res4b4_branch2b_i2"
	top: "res4b4_branch2b_i2"
	name: "scale4b4_branch2b_i2"
	type: "Scale"
	scale_param {
		bias_term: true
	}
	param {
		name: "scale4b4_branch2b_0"
	      lr_mult: 0
	}
	param {
		name: "scale4b4_branch2b_1"
	      lr_mult: 0
	}
}

layer {
	top: "res4b4_branch2b_i2"
	bottom: "res4b4_branch2b_i2"
	name: "res4b4_branch2b_relu_i2"
	type: "ReLU"
}

layer {
	bottom: "res4b4_branch2b_i2"
	top: "res4b4_branch2c_i2"
	name: "res4b4_branch2c_i2"
	type: "Convolution"
	param {
		name: "res4b4_branch2c_0"
               lr_mult: 1
               decay_mult: 1
        }
        convolution_param {
		num_output: 1024
		kernel_size: 1
		pad: 0
		stride: 1
		bias_term: false
	}
}

layer {
	bottom: "res4b4_branch2c_i2"
	top: "res4b4_branch2c_i2"
	name: "bn4b4_branch2c_i2"
	type: "BatchNorm"
	batch_norm_param {
		use_global_stats: true
	}
	param {
		name: "bn4b4_branch2c_0"
	      lr_mult: 0
	}
	param {
		name: "bn4b4_branch2c_1"
	      lr_mult: 0
        }
	param {
		name: "bn4b4_branch2c_2"
	      lr_mult: 0
        }
}

layer {
	bottom: "res4b4_branch2c_i2"
	top: "res4b4_branch2c_i2"
	name: "scale4b4_branch2c_i2"
	type: "Scale"
	scale_param {
		bias_term: true
	}
	param {
		name: "scale4b4_branch2c_0"
	      lr_mult: 0
	}
	param {
		name: "scale4b4_branch2c_1"
	      lr_mult: 0
	}
}

layer {
	bottom: "res4b3_i2"
	bottom: "res4b4_branch2c_i2"
	top: "res4b4_i2"
	name: "res4b4_i2"
	type: "Eltwise"
}

layer {
	bottom: "res4b4_i2"
	top: "res4b4_i2"
	name: "res4b4_relu_i2"
	type: "ReLU"
}

layer {
	bottom: "res4b4_i2"
	top: "res4b5_branch2a_i2"
	name: "res4b5_branch2a_i2"
	type: "Convolution"
	param {
		name: "res4b5_branch2a_0"
               lr_mult: 1
               decay_mult: 1
        }
        convolution_param {
		num_output: 256
		kernel_size: 1
		pad: 0
		stride: 1
		bias_term: false
	}
}

layer {
	bottom: "res4b5_branch2a_i2"
	top: "res4b5_branch2a_i2"
	name: "bn4b5_branch2a_i2"
	type: "BatchNorm"
	batch_norm_param {
		use_global_stats: true
	}
	param {
		name: "bn4b5_branch2a_0"
	      lr_mult: 0
	}
	param {
		name: "bn4b5_branch2a_1"
	      lr_mult: 0
        }
	param {
		name: "bn4b5_branch2a_2"
	      lr_mult: 0
        }
}

layer {
	bottom: "res4b5_branch2a_i2"
	top: "res4b5_branch2a_i2"
	name: "scale4b5_branch2a_i2"
	type: "Scale"
	scale_param {
		bias_term: true
	}
	param {
		name: "scale4b5_branch2a_0"
	      lr_mult: 0
	}
	param {
		name: "scale4b5_branch2a_1"
	      lr_mult: 0
	}
}

layer {
	top: "res4b5_branch2a_i2"
	bottom: "res4b5_branch2a_i2"
	name: "res4b5_branch2a_relu_i2"
	type: "ReLU"
}

layer {
	bottom: "res4b5_branch2a_i2"
	top: "res4b5_branch2b_i2"
	name: "res4b5_branch2b_i2"
	type: "Convolution"
	param {
		name: "res4b5_branch2b_0"
               lr_mult: 1
               decay_mult: 1
        }
        convolution_param {
		num_output: 256
		kernel_size: 3
		pad: 2
		dilation: 2
		stride: 1
		bias_term: false
	}
}

layer {
	bottom: "res4b5_branch2b_i2"
	top: "res4b5_branch2b_i2"
	name: "bn4b5_branch2b_i2"
	type: "BatchNorm"
	batch_norm_param {
		use_global_stats: true
	}
	param {
		name: "bn4b5_branch2b_0"
	      lr_mult: 0
	}
	param {
		name: "bn4b5_branch2b_1"
	      lr_mult: 0
        }
	param {
		name: "bn4b5_branch2b_2"
	      lr_mult: 0
        }
}

layer {
	bottom: "res4b5_branch2b_i2"
	top: "res4b5_branch2b_i2"
	name: "scale4b5_branch2b_i2"
	type: "Scale"
	scale_param {
		bias_term: true
	}
	param {
		name: "scale4b5_branch2b_0"
	      lr_mult: 0
	}
	param {
		name: "scale4b5_branch2b_1"
	      lr_mult: 0
	}
}

layer {
	top: "res4b5_branch2b_i2"
	bottom: "res4b5_branch2b_i2"
	name: "res4b5_branch2b_relu_i2"
	type: "ReLU"
}

layer {
	bottom: "res4b5_branch2b_i2"
	top: "res4b5_branch2c_i2"
	name: "res4b5_branch2c_i2"
	type: "Convolution"
	param {
		name: "res4b5_branch2c_0"
               lr_mult: 1
               decay_mult: 1
        }
        convolution_param {
		num_output: 1024
		kernel_size: 1
		pad: 0
		stride: 1
		bias_term: false
	}
}

layer {
	bottom: "res4b5_branch2c_i2"
	top: "res4b5_branch2c_i2"
	name: "bn4b5_branch2c_i2"
	type: "BatchNorm"
	batch_norm_param {
		use_global_stats: true
	}
	param {
		name: "bn4b5_branch2c_0"
	      lr_mult: 0
	}
	param {
		name: "bn4b5_branch2c_1"
	      lr_mult: 0
        }
	param {
		name: "bn4b5_branch2c_2"
	      lr_mult: 0
        }
}

layer {
	bottom: "res4b5_branch2c_i2"
	top: "res4b5_branch2c_i2"
	name: "scale4b5_branch2c_i2"
	type: "Scale"
	scale_param {
		bias_term: true
	}
	param {
		name: "scale4b5_branch2c_0"
	      lr_mult: 0
	}
	param {
		name: "scale4b5_branch2c_1"
	      lr_mult: 0
	}
}

layer {
	bottom: "res4b4_i2"
	bottom: "res4b5_branch2c_i2"
	top: "res4b5_i2"
	name: "res4b5_i2"
	type: "Eltwise"
}

layer {
	bottom: "res4b5_i2"
	top: "res4b5_i2"
	name: "res4b5_relu_i2"
	type: "ReLU"
}

layer {
	bottom: "res4b5_i2"
	top: "res4b6_branch2a_i2"
	name: "res4b6_branch2a_i2"
	type: "Convolution"
	param {
		name: "res4b6_branch2a_0"
               lr_mult: 1
               decay_mult: 1
        }
        convolution_param {
		num_output: 256
		kernel_size: 1
		pad: 0
		stride: 1
		bias_term: false
	}
}

layer {
	bottom: "res4b6_branch2a_i2"
	top: "res4b6_branch2a_i2"
	name: "bn4b6_branch2a_i2"
	type: "BatchNorm"
	batch_norm_param {
		use_global_stats: true
	}
	param {
		name: "bn4b6_branch2a_0"
	      lr_mult: 0
	}
	param {
		name: "bn4b6_branch2a_1"
	      lr_mult: 0
        }
	param {
		name: "bn4b6_branch2a_2"
	      lr_mult: 0
        }
}

layer {
	bottom: "res4b6_branch2a_i2"
	top: "res4b6_branch2a_i2"
	name: "scale4b6_branch2a_i2"
	type: "Scale"
	scale_param {
		bias_term: true
	}
	param {
		name: "scale4b6_branch2a_0"
	      lr_mult: 0
	}
	param {
		name: "scale4b6_branch2a_1"
	      lr_mult: 0
	}
}

layer {
	top: "res4b6_branch2a_i2"
	bottom: "res4b6_branch2a_i2"
	name: "res4b6_branch2a_relu_i2"
	type: "ReLU"
}

layer {
	bottom: "res4b6_branch2a_i2"
	top: "res4b6_branch2b_i2"
	name: "res4b6_branch2b_i2"
	type: "Convolution"
	param {
		name: "res4b6_branch2b_0"
               lr_mult: 1
               decay_mult: 1
        }
        convolution_param {
		num_output: 256
		kernel_size: 3
		pad: 2
		dilation: 2
		stride: 1
		bias_term: false
	}
}

layer {
	bottom: "res4b6_branch2b_i2"
	top: "res4b6_branch2b_i2"
	name: "bn4b6_branch2b_i2"
	type: "BatchNorm"
	batch_norm_param {
		use_global_stats: true
	}
	param {
		name: "bn4b6_branch2b_0"
	      lr_mult: 0
	}
	param {
		name: "bn4b6_branch2b_1"
	      lr_mult: 0
        }
	param {
		name: "bn4b6_branch2b_2"
	      lr_mult: 0
        }
}

layer {
	bottom: "res4b6_branch2b_i2"
	top: "res4b6_branch2b_i2"
	name: "scale4b6_branch2b_i2"
	type: "Scale"
	scale_param {
		bias_term: true
	}
	param {
		name: "scale4b6_branch2b_0"
	      lr_mult: 0
	}
	param {
		name: "scale4b6_branch2b_1"
	      lr_mult: 0
	}
}

layer {
	top: "res4b6_branch2b_i2"
	bottom: "res4b6_branch2b_i2"
	name: "res4b6_branch2b_relu_i2"
	type: "ReLU"
}

layer {
	bottom: "res4b6_branch2b_i2"
	top: "res4b6_branch2c_i2"
	name: "res4b6_branch2c_i2"
	type: "Convolution"
	param {
		name: "res4b6_branch2c_0"
               lr_mult: 1
               decay_mult: 1
        }
        convolution_param {
		num_output: 1024
		kernel_size: 1
		pad: 0
		stride: 1
		bias_term: false
	}
}

layer {
	bottom: "res4b6_branch2c_i2"
	top: "res4b6_branch2c_i2"
	name: "bn4b6_branch2c_i2"
	type: "BatchNorm"
	batch_norm_param {
		use_global_stats: true
	}
	param {
		name: "bn4b6_branch2c_0"
	      lr_mult: 0
	}
	param {
		name: "bn4b6_branch2c_1"
	      lr_mult: 0
        }
	param {
		name: "bn4b6_branch2c_2"
	      lr_mult: 0
        }
}

layer {
	bottom: "res4b6_branch2c_i2"
	top: "res4b6_branch2c_i2"
	name: "scale4b6_branch2c_i2"
	type: "Scale"
	scale_param {
		bias_term: true
	}
	param {
		name: "scale4b6_branch2c_0"
	      lr_mult: 0
	}
	param {
		name: "scale4b6_branch2c_1"
	      lr_mult: 0
	}
}

layer {
	bottom: "res4b5_i2"
	bottom: "res4b6_branch2c_i2"
	top: "res4b6_i2"
	name: "res4b6_i2"
	type: "Eltwise"
}

layer {
	bottom: "res4b6_i2"
	top: "res4b6_i2"
	name: "res4b6_relu_i2"
	type: "ReLU"
}

layer {
	bottom: "res4b6_i2"
	top: "res4b7_branch2a_i2"
	name: "res4b7_branch2a_i2"
	type: "Convolution"
	param {
		name: "res4b7_branch2a_0"
               lr_mult: 1
               decay_mult: 1
        }
        convolution_param {
		num_output: 256
		kernel_size: 1
		pad: 0
		stride: 1
		bias_term: false
	}
}

layer {
	bottom: "res4b7_branch2a_i2"
	top: "res4b7_branch2a_i2"
	name: "bn4b7_branch2a_i2"
	type: "BatchNorm"
	batch_norm_param {
		use_global_stats: true
	}
	param {
		name: "bn4b7_branch2a_0"
	      lr_mult: 0
	}
	param {
		name: "bn4b7_branch2a_1"
	      lr_mult: 0
        }
	param {
		name: "bn4b7_branch2a_2"
	      lr_mult: 0
        }
}

layer {
	bottom: "res4b7_branch2a_i2"
	top: "res4b7_branch2a_i2"
	name: "scale4b7_branch2a_i2"
	type: "Scale"
	scale_param {
		bias_term: true
	}
	param {
		name: "scale4b7_branch2a_0"
	      lr_mult: 0
	}
	param {
		name: "scale4b7_branch2a_1"
	      lr_mult: 0
	}
}

layer {
	top: "res4b7_branch2a_i2"
	bottom: "res4b7_branch2a_i2"
	name: "res4b7_branch2a_relu_i2"
	type: "ReLU"
}

layer {
	bottom: "res4b7_branch2a_i2"
	top: "res4b7_branch2b_i2"
	name: "res4b7_branch2b_i2"
	type: "Convolution"
	param {
		name: "res4b7_branch2b_0"
               lr_mult: 1
               decay_mult: 1
        }
        convolution_param {
		num_output: 256
		kernel_size: 3
		pad: 2
		dilation: 2
		stride: 1
		bias_term: false
	}
}

layer {
	bottom: "res4b7_branch2b_i2"
	top: "res4b7_branch2b_i2"
	name: "bn4b7_branch2b_i2"
	type: "BatchNorm"
	batch_norm_param {
		use_global_stats: true
	}
	param {
		name: "bn4b7_branch2b_0"
	      lr_mult: 0
	}
	param {
		name: "bn4b7_branch2b_1"
	      lr_mult: 0
        }
	param {
		name: "bn4b7_branch2b_2"
	      lr_mult: 0
        }
}

layer {
	bottom: "res4b7_branch2b_i2"
	top: "res4b7_branch2b_i2"
	name: "scale4b7_branch2b_i2"
	type: "Scale"
	scale_param {
		bias_term: true
	}
	param {
		name: "scale4b7_branch2b_0"
	      lr_mult: 0
	}
	param {
		name: "scale4b7_branch2b_1"
	      lr_mult: 0
	}
}

layer {
	top: "res4b7_branch2b_i2"
	bottom: "res4b7_branch2b_i2"
	name: "res4b7_branch2b_relu_i2"
	type: "ReLU"
}

layer {
	bottom: "res4b7_branch2b_i2"
	top: "res4b7_branch2c_i2"
	name: "res4b7_branch2c_i2"
	type: "Convolution"
	param {
		name: "res4b7_branch2c_0"
               lr_mult: 1
               decay_mult: 1
        }
        convolution_param {
		num_output: 1024
		kernel_size: 1
		pad: 0
		stride: 1
		bias_term: false
	}
}

layer {
	bottom: "res4b7_branch2c_i2"
	top: "res4b7_branch2c_i2"
	name: "bn4b7_branch2c_i2"
	type: "BatchNorm"
	batch_norm_param {
		use_global_stats: true
	}
	param {
		name: "bn4b7_branch2c_0"
	      lr_mult: 0
	}
	param {
		name: "bn4b7_branch2c_1"
	      lr_mult: 0
        }
	param {
		name: "bn4b7_branch2c_2"
	      lr_mult: 0
        }
}

layer {
	bottom: "res4b7_branch2c_i2"
	top: "res4b7_branch2c_i2"
	name: "scale4b7_branch2c_i2"
	type: "Scale"
	scale_param {
		bias_term: true
	}
	param {
		name: "scale4b7_branch2c_0"
	      lr_mult: 0
	}
	param {
		name: "scale4b7_branch2c_1"
	      lr_mult: 0
	}
}

layer {
	bottom: "res4b6_i2"
	bottom: "res4b7_branch2c_i2"
	top: "res4b7_i2"
	name: "res4b7_i2"
	type: "Eltwise"
}

layer {
	bottom: "res4b7_i2"
	top: "res4b7_i2"
	name: "res4b7_relu_i2"
	type: "ReLU"
}

layer {
	bottom: "res4b7_i2"
	top: "res4b8_branch2a_i2"
	name: "res4b8_branch2a_i2"
	type: "Convolution"
	param {
		name: "res4b8_branch2a_0"
               lr_mult: 1
               decay_mult: 1
        }
        convolution_param {
		num_output: 256
		kernel_size: 1
		pad: 0
		stride: 1
		bias_term: false
	}
}

layer {
	bottom: "res4b8_branch2a_i2"
	top: "res4b8_branch2a_i2"
	name: "bn4b8_branch2a_i2"
	type: "BatchNorm"
	batch_norm_param {
		use_global_stats: true
	}
	param {
		name: "bn4b8_branch2a_0"
	      lr_mult: 0
	}
	param {
		name: "bn4b8_branch2a_1"
	      lr_mult: 0
        }
	param {
		name: "bn4b8_branch2a_2"
	      lr_mult: 0
        }
}

layer {
	bottom: "res4b8_branch2a_i2"
	top: "res4b8_branch2a_i2"
	name: "scale4b8_branch2a_i2"
	type: "Scale"
	scale_param {
		bias_term: true
	}
	param {
		name: "scale4b8_branch2a_0"
	      lr_mult: 0
	}
	param {
		name: "scale4b8_branch2a_1"
	      lr_mult: 0
	}
}

layer {
	top: "res4b8_branch2a_i2"
	bottom: "res4b8_branch2a_i2"
	name: "res4b8_branch2a_relu_i2"
	type: "ReLU"
}

layer {
	bottom: "res4b8_branch2a_i2"
	top: "res4b8_branch2b_i2"
	name: "res4b8_branch2b_i2"
	type: "Convolution"
	param {
		name: "res4b8_branch2b_0"
               lr_mult: 1
               decay_mult: 1
        }
        convolution_param {
		num_output: 256
		kernel_size: 3
		pad: 2
		dilation: 2
		stride: 1
		bias_term: false
	}
}

layer {
	bottom: "res4b8_branch2b_i2"
	top: "res4b8_branch2b_i2"
	name: "bn4b8_branch2b_i2"
	type: "BatchNorm"
	batch_norm_param {
		use_global_stats: true
	}
	param {
		name: "bn4b8_branch2b_0"
	      lr_mult: 0
	}
	param {
		name: "bn4b8_branch2b_1"
	      lr_mult: 0
        }
	param {
		name: "bn4b8_branch2b_2"
	      lr_mult: 0
        }
}

layer {
	bottom: "res4b8_branch2b_i2"
	top: "res4b8_branch2b_i2"
	name: "scale4b8_branch2b_i2"
	type: "Scale"
	scale_param {
		bias_term: true
	}
	param {
		name: "scale4b8_branch2b_0"
	      lr_mult: 0
	}
	param {
		name: "scale4b8_branch2b_1"
	      lr_mult: 0
	}
}

layer {
	top: "res4b8_branch2b_i2"
	bottom: "res4b8_branch2b_i2"
	name: "res4b8_branch2b_relu_i2"
	type: "ReLU"
}

layer {
	bottom: "res4b8_branch2b_i2"
	top: "res4b8_branch2c_i2"
	name: "res4b8_branch2c_i2"
	type: "Convolution"
	param {
		name: "res4b8_branch2c_0"
               lr_mult: 1
               decay_mult: 1
        }
        convolution_param {
		num_output: 1024
		kernel_size: 1
		pad: 0
		stride: 1
		bias_term: false
	}
}

layer {
	bottom: "res4b8_branch2c_i2"
	top: "res4b8_branch2c_i2"
	name: "bn4b8_branch2c_i2"
	type: "BatchNorm"
	batch_norm_param {
		use_global_stats: true
	}
	param {
		name: "bn4b8_branch2c_0"
	      lr_mult: 0
	}
	param {
		name: "bn4b8_branch2c_1"
	      lr_mult: 0
        }
	param {
		name: "bn4b8_branch2c_2"
	      lr_mult: 0
        }
}

layer {
	bottom: "res4b8_branch2c_i2"
	top: "res4b8_branch2c_i2"
	name: "scale4b8_branch2c_i2"
	type: "Scale"
	scale_param {
		bias_term: true
	}
	param {
		name: "scale4b8_branch2c_0"
	      lr_mult: 0
	}
	param {
		name: "scale4b8_branch2c_1"
	      lr_mult: 0
	}
}

layer {
	bottom: "res4b7_i2"
	bottom: "res4b8_branch2c_i2"
	top: "res4b8_i2"
	name: "res4b8_i2"
	type: "Eltwise"
}

layer {
	bottom: "res4b8_i2"
	top: "res4b8_i2"
	name: "res4b8_relu_i2"
	type: "ReLU"
}

### data prep. for res4b9 ###
layer {
  bottom: "res4b8_i2"
  top: "res4b8_norm_i2"
  name: "res4b8_norm_i2"
  type: "Normalize"
  param {
    lr_mult: 10
    decay_mult: 1
    name: "res4b8_nw_i2"
  }
  norm_param {
    scale_filler {
      type: "constant"
      value: 1
    }
  across_spatial: false
  channel_shared: false
  fix_scale: false
  }
}
layer {
  bottom: "res4b8_norm_i2"
  top: "res4b8_norm_i2"
  name: "res4b8_norm_drop_i2"
  type: "Dropout"
  dropout_param {
    dropout_ratio: 0.3
  }
}

layer {
  bottom: "res4b8_norm_i2"
  bottom: "res5c_res4b9_norm"
  top: "hyb_data_res4b9_i2"
  name: "hyb_data_res4b9_i2"
  type: "Eltwise"
  eltwise_param {
    operation: SUM
  }
}
### END data prep. for res4b9 ###

layer {
	bottom: "hyb_data_res4b9_i2"
	top: "res4b9_branch2a_i2"
	name: "res4b9_branch2a_i2"
	type: "Convolution"
	param {
		name: "res4b9_branch2a_0"
               lr_mult: 1
               decay_mult: 1
        }
        convolution_param {
		num_output: 256
		kernel_size: 1
		pad: 0
		stride: 1
		bias_term: false
	}
}

layer {
	bottom: "res4b9_branch2a_i2"
	top: "res4b9_branch2a_i2"
	name: "bn4b9_branch2a_i2"
	type: "BatchNorm"
	batch_norm_param {
		use_global_stats: true
	}
	param {
		name: "bn4b9_branch2a_0"
	      lr_mult: 0
	}
	param {
		name: "bn4b9_branch2a_1"
	      lr_mult: 0
        }
	param {
		name: "bn4b9_branch2a_2"
	      lr_mult: 0
        }
}

layer {
	bottom: "res4b9_branch2a_i2"
	top: "res4b9_branch2a_i2"
	name: "scale4b9_branch2a_i2"
	type: "Scale"
	scale_param {
		bias_term: true
	}
	param {
		name: "scale4b9_branch2a_0"
	      lr_mult: 0
	}
	param {
		name: "scale4b9_branch2a_1"
	      lr_mult: 0
	}
}

layer {
	top: "res4b9_branch2a_i2"
	bottom: "res4b9_branch2a_i2"
	name: "res4b9_branch2a_relu_i2"
	type: "ReLU"
}

layer {
	bottom: "res4b9_branch2a_i2"
	top: "res4b9_branch2b_i2"
	name: "res4b9_branch2b_i2"
	type: "Convolution"
	param {
		name: "res4b9_branch2b_0"
               lr_mult: 1
               decay_mult: 1
        }
        convolution_param {
		num_output: 256
		kernel_size: 3
		pad: 2
		dilation: 2
		stride: 1
		bias_term: false
	}
}

layer {
	bottom: "res4b9_branch2b_i2"
	top: "res4b9_branch2b_i2"
	name: "bn4b9_branch2b_i2"
	type: "BatchNorm"
	batch_norm_param {
		use_global_stats: true
	}
	param {
		name: "bn4b9_branch2b_0"
	      lr_mult: 0
	}
	param {
		name: "bn4b9_branch2b_1"
	      lr_mult: 0
        }
	param {
		name: "bn4b9_branch2b_2"
	      lr_mult: 0
        }
}

layer {
	bottom: "res4b9_branch2b_i2"
	top: "res4b9_branch2b_i2"
	name: "scale4b9_branch2b_i2"
	type: "Scale"
	scale_param {
		bias_term: true
	}
	param {
		name: "scale4b9_branch2b_0"
	      lr_mult: 0
	}
	param {
		name: "scale4b9_branch2b_1"
	      lr_mult: 0
	}
}

layer {
	top: "res4b9_branch2b_i2"
	bottom: "res4b9_branch2b_i2"
	name: "res4b9_branch2b_relu_i2"
	type: "ReLU"
}

layer {
	bottom: "res4b9_branch2b_i2"
	top: "res4b9_branch2c_i2"
	name: "res4b9_branch2c_i2"
	type: "Convolution"
	param {
		name: "res4b9_branch2c_0"
               lr_mult: 1
               decay_mult: 1
        }
        convolution_param {
		num_output: 1024
		kernel_size: 1
		pad: 0
		stride: 1
		bias_term: false
	}
}

layer {
	bottom: "res4b9_branch2c_i2"
	top: "res4b9_branch2c_i2"
	name: "bn4b9_branch2c_i2"
	type: "BatchNorm"
	batch_norm_param {
		use_global_stats: true
	}
	param {
		name: "bn4b9_branch2c_0"
	      lr_mult: 0
	}
	param {
		name: "bn4b9_branch2c_1"
	      lr_mult: 0
        }
	param {
		name: "bn4b9_branch2c_2"
	      lr_mult: 0
        }
}

layer {
	bottom: "res4b9_branch2c_i2"
	top: "res4b9_branch2c_i2"
	name: "scale4b9_branch2c_i2"
	type: "Scale"
	scale_param {
		bias_term: true
	}
	param {
		name: "scale4b9_branch2c_0"
	      lr_mult: 0
	}
	param {
		name: "scale4b9_branch2c_1"
	      lr_mult: 0
	}
}

layer {
	bottom: "hyb_data_res4b9_i2"
	bottom: "res4b9_branch2c_i2"
	top: "res4b9_i2"
	name: "res4b9_i2"
	type: "Eltwise"
}

layer {
	bottom: "res4b9_i2"
	top: "res4b9_i2"
	name: "res4b9_relu_i2"
	type: "ReLU"
}

layer {
	bottom: "res4b9_i2"
	top: "res4b10_branch2a_i2"
	name: "res4b10_branch2a_i2"
	type: "Convolution"
	param {
		name: "res4b10_branch2a_0"
               lr_mult: 1
               decay_mult: 1
        }
        convolution_param {
		num_output: 256
		kernel_size: 1
		pad: 0
		stride: 1
		bias_term: false
	}
}

layer {
	bottom: "res4b10_branch2a_i2"
	top: "res4b10_branch2a_i2"
	name: "bn4b10_branch2a_i2"
	type: "BatchNorm"
	batch_norm_param {
		use_global_stats: true
	}
	param {
		name: "bn4b10_branch2a_0"
	      lr_mult: 0
	}
	param {
		name: "bn4b10_branch2a_1"
	      lr_mult: 0
        }
	param {
		name: "bn4b10_branch2a_2"
	      lr_mult: 0
        }
}

layer {
	bottom: "res4b10_branch2a_i2"
	top: "res4b10_branch2a_i2"
	name: "scale4b10_branch2a_i2"
	type: "Scale"
	scale_param {
		bias_term: true
	}
	param {
		name: "scale4b10_branch2a_0"
	      lr_mult: 0
	}
	param {
		name: "scale4b10_branch2a_1"
	      lr_mult: 0
	}
}

layer {
	top: "res4b10_branch2a_i2"
	bottom: "res4b10_branch2a_i2"
	name: "res4b10_branch2a_relu_i2"
	type: "ReLU"
}

layer {
	bottom: "res4b10_branch2a_i2"
	top: "res4b10_branch2b_i2"
	name: "res4b10_branch2b_i2"
	type: "Convolution"
	param {
		name: "res4b10_branch2b_0"
               lr_mult: 1
               decay_mult: 1
        }
        convolution_param {
		num_output: 256
		kernel_size: 3
		pad: 2
		dilation: 2
		stride: 1
		bias_term: false
	}
}

layer {
	bottom: "res4b10_branch2b_i2"
	top: "res4b10_branch2b_i2"
	name: "bn4b10_branch2b_i2"
	type: "BatchNorm"
	batch_norm_param {
		use_global_stats: true
	}
	param {
		name: "bn4b10_branch2b_0"
	      lr_mult: 0
	}
	param {
		name: "bn4b10_branch2b_1"
	      lr_mult: 0
        }
	param {
…
	}
	param {
		name: "scale4b12_branch2b_0"
	      lr_mult: 0
	}
	param {
		name: "scale4b12_branch2b_1"
	      lr_mult: 0
	}
}

layer {
	top: "res4b12_branch2b_i3"
	bottom: "res4b12_branch2b_i3"
	name: "res4b12_branch2b_relu_i3"
	type: "ReLU"
}

layer {
	bottom: "res4b12_branch2b_i3"
	top: "res4b12_branch2c_i3"
	name: "res4b12_branch2c_i3"
	type: "Convolution"
	param {
		name: "res4b12_branch2c_0"
               lr_mult: 1
               decay_mult: 1
        }
        convolution_param {
		num_output: 1024
		kernel_size: 1
		pad: 0
		stride: 1
		bias_term: false
	}
}

layer {
	bottom: "res4b12_branch2c_i3"
	top: "res4b12_branch2c_i3"
	name: "bn4b12_branch2c_i3"
	type: "BatchNorm"
	batch_norm_param {
		use_global_stats: true
	}
	param {
		name: "bn4b12_branch2c_0"
	      lr_mult: 0
	}
	param {
		name: "bn4b12_branch2c_1"
	      lr_mult: 0
        }
	param {
		name: "bn4b12_branch2c_2"
	      lr_mult: 0
        }
}

layer {
	bottom: "res4b12_branch2c_i3"
	top: "res4b12_branch2c_i3"
	name: "scale4b12_branch2c_i3"
	type: "Scale"
	scale_param {
		bias_term: true
	}
	param {
		name: "scale4b12_branch2c_0"
	      lr_mult: 0
	}
	param {
		name: "scale4b12_branch2c_1"
	      lr_mult: 0
	}
}

layer {
	bottom: "res4b11_i3"
	bottom: "res4b12_branch2c_i3"
	top: "res4b12_i3"
	name: "res4b12_i3"
	type: "Eltwise"
}

layer {
	bottom: "res4b12_i3"
	top: "res4b12_i3"
	name: "res4b12_relu_i3"
	type: "ReLU"
}

layer {
	bottom: "res4b12_i3"
	top: "res4b13_branch2a_i3"
	name: "res4b13_branch2a_i3"
	type: "Convolution"
	param {
		name: "res4b13_branch2a_0"
               lr_mult: 1
               decay_mult: 1
        }
        convolution_param {
		num_output: 256
		kernel_size: 1
		pad: 0
		stride: 1
		bias_term: false
	}
}

layer {
	bottom: "res4b13_branch2a_i3"
	top: "res4b13_branch2a_i3"
	name: "bn4b13_branch2a_i3"
	type: "BatchNorm"
	batch_norm_param {
		use_global_stats: true
	}
	param {
		name: "bn4b13_branch2a_0"
	      lr_mult: 0
	}
	param {
		name: "bn4b13_branch2a_1"
	      lr_mult: 0
        }
	param {
		name: "bn4b13_branch2a_2"
	      lr_mult: 0
        }
}

layer {
	bottom: "res4b13_branch2a_i3"
	top: "res4b13_branch2a_i3"
	name: "scale4b13_branch2a_i3"
	type: "Scale"
	scale_param {
		bias_term: true
	}
	param {
		name: "scale4b13_branch2a_0"
	      lr_mult: 0
	}
	param {
		name: "scale4b13_branch2a_1"
	      lr_mult: 0
	}
}

layer {
	top: "res4b13_branch2a_i3"
	bottom: "res4b13_branch2a_i3"
	name: "res4b13_branch2a_relu_i3"
	type: "ReLU"
}

layer {
	bottom: "res4b13_branch2a_i3"
	top: "res4b13_branch2b_i3"
	name: "res4b13_branch2b_i3"
	type: "Convolution"
	param {
		name: "res4b13_branch2b_0"
               lr_mult: 1
               decay_mult: 1
        }
        convolution_param {
		num_output: 256
		kernel_size: 3
		pad: 2
		dilation: 2
		stride: 1
		bias_term: false
	}
}

layer {
	bottom: "res4b13_branch2b_i3"
	top: "res4b13_branch2b_i3"
	name: "bn4b13_branch2b_i3"
	type: "BatchNorm"
	batch_norm_param {
		use_global_stats: true
	}
	param {
		name: "bn4b13_branch2b_0"
	      lr_mult: 0
	}
	param {
		name: "bn4b13_branch2b_1"
	      lr_mult: 0
        }
	param {
		name: "bn4b13_branch2b_2"
	      lr_mult: 0
        }
}

layer {
	bottom: "res4b13_branch2b_i3"
	top: "res4b13_branch2b_i3"
	name: "scale4b13_branch2b_i3"
	type: "Scale"
	scale_param {
		bias_term: true
	}
	param {
		name: "scale4b13_branch2b_0"
	      lr_mult: 0
	}
	param {
		name: "scale4b13_branch2b_1"
	      lr_mult: 0
	}
}

layer {
	top: "res4b13_branch2b_i3"
	bottom: "res4b13_branch2b_i3"
	name: "res4b13_branch2b_relu_i3"
	type: "ReLU"
}

layer {
	bottom: "res4b13_branch2b_i3"
	top: "res4b13_branch2c_i3"
	name: "res4b13_branch2c_i3"
	type: "Convolution"
	param {
		name: "res4b13_branch2c_0"
               lr_mult: 1
               decay_mult: 1
        }
        convolution_param {
		num_output: 1024
		kernel_size: 1
		pad: 0
		stride: 1
		bias_term: false
	}
}

layer {
	bottom: "res4b13_branch2c_i3"
	top: "res4b13_branch2c_i3"
	name: "bn4b13_branch2c_i3"
	type: "BatchNorm"
	batch_norm_param {
		use_global_stats: true
	}
	param {
		name: "bn4b13_branch2c_0"
	      lr_mult: 0
	}
	param {
		name: "bn4b13_branch2c_1"
	      lr_mult: 0
        }
	param {
		name: "bn4b13_branch2c_2"
	      lr_mult: 0
        }
}

layer {
	bottom: "res4b13_branch2c_i3"
	top: "res4b13_branch2c_i3"
	name: "scale4b13_branch2c_i3"
	type: "Scale"
	scale_param {
		bias_term: true
	}
	param {
		name: "scale4b13_branch2c_0"
	      lr_mult: 0
	}
	param {
		name: "scale4b13_branch2c_1"
	      lr_mult: 0
	}
}

layer {
	bottom: "res4b12_i3"
	bottom: "res4b13_branch2c_i3"
	top: "res4b13_i3"
	name: "res4b13_i3"
	type: "Eltwise"
}

layer {
	bottom: "res4b13_i3"
	top: "res4b13_i3"
	name: "res4b13_relu_i3"
	type: "ReLU"
}

layer {
	bottom: "res4b13_i3"
	top: "res4b14_branch2a_i3"
	name: "res4b14_branch2a_i3"
	type: "Convolution"
	param {
		name: "res4b14_branch2a_0"
               lr_mult: 1
               decay_mult: 1
        }
        convolution_param {
		num_output: 256
		kernel_size: 1
		pad: 0
		stride: 1
		bias_term: false
	}
}

layer {
	bottom: "res4b14_branch2a_i3"
	top: "res4b14_branch2a_i3"
	name: "bn4b14_branch2a_i3"
	type: "BatchNorm"
	batch_norm_param {
		use_global_stats: true
	}
	param {
		name: "bn4b14_branch2a_0"
	      lr_mult: 0
	}
	param {
		name: "bn4b14_branch2a_1"
	      lr_mult: 0
        }
	param {
		name: "bn4b14_branch2a_2"
	      lr_mult: 0
        }
}

layer {
	bottom: "res4b14_branch2a_i3"
	top: "res4b14_branch2a_i3"
	name: "scale4b14_branch2a_i3"
	type: "Scale"
	scale_param {
		bias_term: true
	}
	param {
		name: "scale4b14_branch2a_0"
	      lr_mult: 0
	}
	param {
		name: "scale4b14_branch2a_1"
	      lr_mult: 0
	}
}

layer {
	top: "res4b14_branch2a_i3"
	bottom: "res4b14_branch2a_i3"
	name: "res4b14_branch2a_relu_i3"
	type: "ReLU"
}

layer {
	bottom: "res4b14_branch2a_i3"
	top: "res4b14_branch2b_i3"
	name: "res4b14_branch2b_i3"
	type: "Convolution"
	param {
		name: "res4b14_branch2b_0"
               lr_mult: 1
               decay_mult: 1
        }
        convolution_param {
		num_output: 256
		kernel_size: 3
		pad: 2
		dilation: 2
		stride: 1
		bias_term: false
	}
}

layer {
	bottom: "res4b14_branch2b_i3"
	top: "res4b14_branch2b_i3"
	name: "bn4b14_branch2b_i3"
	type: "BatchNorm"
	batch_norm_param {
		use_global_stats: true
	}
	param {
		name: "bn4b14_branch2b_0"
	      lr_mult: 0
	}
	param {
		name: "bn4b14_branch2b_1"
	      lr_mult: 0
        }
	param {
		name: "bn4b14_branch2b_2"
	      lr_mult: 0
        }
}

layer {
	bottom: "res4b14_branch2b_i3"
	top: "res4b14_branch2b_i3"
	name: "scale4b14_branch2b_i3"
	type: "Scale"
	scale_param {
		bias_term: true
	}
	param {
		name: "scale4b14_branch2b_0"
	      lr_mult: 0
	}
	param {
		name: "scale4b14_branch2b_1"
	      lr_mult: 0
	}
}

layer {
	top: "res4b14_branch2b_i3"
	bottom: "res4b14_branch2b_i3"
	name: "res4b14_branch2b_relu_i3"
	type: "ReLU"
}

layer {
	bottom: "res4b14_branch2b_i3"
	top: "res4b14_branch2c_i3"
	name: "res4b14_branch2c_i3"
	type: "Convolution"
	param {
		name: "res4b14_branch2c_0"
               lr_mult: 1
               decay_mult: 1
        }
        convolution_param {
		num_output: 1024
		kernel_size: 1
		pad: 0
		stride: 1
		bias_term: false
	}
}

layer {
	bottom: "res4b14_branch2c_i3"
	top: "res4b14_branch2c_i3"
	name: "bn4b14_branch2c_i3"
	type: "BatchNorm"
	batch_norm_param {
		use_global_stats: true
	}
	param {
		name: "bn4b14_branch2c_0"
	      lr_mult: 0
	}
	param {
		name: "bn4b14_branch2c_1"
	      lr_mult: 0
        }
	param {
		name: "bn4b14_branch2c_2"
	      lr_mult: 0
        }
}

layer {
	bottom: "res4b14_branch2c_i3"
	top: "res4b14_branch2c_i3"
	name: "scale4b14_branch2c_i3"
	type: "Scale"
	scale_param {
		bias_term: true
	}
	param {
		name: "scale4b14_branch2c_0"
	      lr_mult: 0
	}
	param {
		name: "scale4b14_branch2c_1"
	      lr_mult: 0
	}
}

layer {
	bottom: "res4b13_i3"
	bottom: "res4b14_branch2c_i3"
	top: "res4b14_i3"
	name: "res4b14_i3"
	type: "Eltwise"
}

layer {
	bottom: "res4b14_i3"
	top: "res4b14_i3"
	name: "res4b14_relu_i3"
	type: "ReLU"
}

layer {
	bottom: "res4b14_i3"
	top: "res4b15_branch2a_i3"
	name: "res4b15_branch2a_i3"
	type: "Convolution"
	param {
		name: "res4b15_branch2a_0"
               lr_mult: 1
               decay_mult: 1
        }
        convolution_param {
		num_output: 256
		kernel_size: 1
		pad: 0
		stride: 1
		bias_term: false
	}
}

layer {
	bottom: "res4b15_branch2a_i3"
	top: "res4b15_branch2a_i3"
	name: "bn4b15_branch2a_i3"
	type: "BatchNorm"
	batch_norm_param {
		use_global_stats: true
	}
	param {
		name: "bn4b15_branch2a_0"
	      lr_mult: 0
	}
	param {
		name: "bn4b15_branch2a_1"
	      lr_mult: 0
        }
	param {
		name: "bn4b15_branch2a_2"
	      lr_mult: 0
        }
}

layer {
	bottom: "res4b15_branch2a_i3"
	top: "res4b15_branch2a_i3"
	name: "scale4b15_branch2a_i3"
	type: "Scale"
	scale_param {
		bias_term: true
	}
	param {
		name: "scale4b15_branch2a_0"
	      lr_mult: 0
	}
	param {
		name: "scale4b15_branch2a_1"
	      lr_mult: 0
	}
}

layer {
	top: "res4b15_branch2a_i3"
	bottom: "res4b15_branch2a_i3"
	name: "res4b15_branch2a_relu_i3"
	type: "ReLU"
}

layer {
	bottom: "res4b15_branch2a_i3"
	top: "res4b15_branch2b_i3"
	name: "res4b15_branch2b_i3"
	type: "Convolution"
	param {
		name: "res4b15_branch2b_0"
               lr_mult: 1
               decay_mult: 1
        }
        convolution_param {
		num_output: 256
		kernel_size: 3
		pad: 2
		dilation: 2
		stride: 1
		bias_term: false
	}
}

layer {
	bottom: "res4b15_branch2b_i3"
	top: "res4b15_branch2b_i3"
	name: "bn4b15_branch2b_i3"
	type: "BatchNorm"
	batch_norm_param {
		use_global_stats: true
	}
	param {
		name: "bn4b15_branch2b_0"
	      lr_mult: 0
	}
	param {
		name: "bn4b15_branch2b_1"
	      lr_mult: 0
        }
	param {
		name: "bn4b15_branch2b_2"
	      lr_mult: 0
        }
}

layer {
	bottom: "res4b15_branch2b_i3"
	top: "res4b15_branch2b_i3"
	name: "scale4b15_branch2b_i3"
	type: "Scale"
	scale_param {
		bias_term: true
	}
	param {
		name: "scale4b15_branch2b_0"
	      lr_mult: 0
	}
	param {
		name: "scale4b15_branch2b_1"
	      lr_mult: 0
	}
}

layer {
	top: "res4b15_branch2b_i3"
	bottom: "res4b15_branch2b_i3"
	name: "res4b15_branch2b_relu_i3"
	type: "ReLU"
}

layer {
	bottom: "res4b15_branch2b_i3"
	top: "res4b15_branch2c_i3"
	name: "res4b15_branch2c_i3"
	type: "Convolution"
	param {
		name: "res4b15_branch2c_0"
               lr_mult: 1
               decay_mult: 1
        }
        convolution_param {
		num_output: 1024
		kernel_size: 1
		pad: 0
		stride: 1
		bias_term: false
	}
}

layer {
	bottom: "res4b15_branch2c_i3"
	top: "res4b15_branch2c_i3"
	name: "bn4b15_branch2c_i3"
	type: "BatchNorm"
	batch_norm_param {
		use_global_stats: true
	}
	param {
		name: "bn4b15_branch2c_0"
	      lr_mult: 0
	}
	param {
		name: "bn4b15_branch2c_1"
	      lr_mult: 0
        }
	param {
		name: "bn4b15_branch2c_2"
	      lr_mult: 0
        }
}

layer {
	bottom: "res4b15_branch2c_i3"
	top: "res4b15_branch2c_i3"
	name: "scale4b15_branch2c_i3"
	type: "Scale"
	scale_param {
		bias_term: true
	}
	param {
		name: "scale4b15_branch2c_0"
	      lr_mult: 0
	}
	param {
		name: "scale4b15_branch2c_1"
	      lr_mult: 0
	}
}

layer {
	bottom: "res4b14_i3"
	bottom: "res4b15_branch2c_i3"
	top: "res4b15_i3"
	name: "res4b15_i3"
	type: "Eltwise"
}

layer {
	bottom: "res4b15_i3"
	top: "res4b15_i3"
	name: "res4b15_relu_i3"
	type: "ReLU"
}

layer {
	bottom: "res4b15_i3"
	top: "res4b16_branch2a_i3"
	name: "res4b16_branch2a_i3"
	type: "Convolution"
	param {
		name: "res4b16_branch2a_0"
               lr_mult: 1
               decay_mult: 1
        }
        convolution_param {
		num_output: 256
		kernel_size: 1
		pad: 0
		stride: 1
		bias_term: false
	}
}

layer {
	bottom: "res4b16_branch2a_i3"
	top: "res4b16_branch2a_i3"
	name: "bn4b16_branch2a_i3"
	type: "BatchNorm"
	batch_norm_param {
		use_global_stats: true
	}
	param {
		name: "bn4b16_branch2a_0"
	      lr_mult: 0
	}
	param {
		name: "bn4b16_branch2a_1"
	      lr_mult: 0
        }
	param {
		name: "bn4b16_branch2a_2"
	      lr_mult: 0
        }
}

layer {
	bottom: "res4b16_branch2a_i3"
	top: "res4b16_branch2a_i3"
	name: "scale4b16_branch2a_i3"
	type: "Scale"
	scale_param {
		bias_term: true
	}
	param {
		name: "scale4b16_branch2a_0"
	      lr_mult: 0
	}
	param {
		name: "scale4b16_branch2a_1"
	      lr_mult: 0
	}
}

layer {
	top: "res4b16_branch2a_i3"
	bottom: "res4b16_branch2a_i3"
	name: "res4b16_branch2a_relu_i3"
	type: "ReLU"
}

layer {
	bottom: "res4b16_branch2a_i3"
	top: "res4b16_branch2b_i3"
	name: "res4b16_branch2b_i3"
	type: "Convolution"
	param {
		name: "res4b16_branch2b_0"
               lr_mult: 1
               decay_mult: 1
        }
        convolution_param {
		num_output: 256
		kernel_size: 3
		pad: 2
		dilation: 2
		stride: 1
		bias_term: false
	}
}

layer {
	bottom: "res4b16_branch2b_i3"
	top: "res4b16_branch2b_i3"
	name: "bn4b16_branch2b_i3"
	type: "BatchNorm"
	batch_norm_param {
		use_global_stats: true
	}
	param {
		name: "bn4b16_branch2b_0"
	      lr_mult: 0
	}
	param {
		name: "bn4b16_branch2b_1"
	      lr_mult: 0
        }
	param {
		name: "bn4b16_branch2b_2"
	      lr_mult: 0
        }
}

layer {
	bottom: "res4b16_branch2b_i3"
	top: "res4b16_branch2b_i3"
	name: "scale4b16_branch2b_i3"
	type: "Scale"
	scale_param {
		bias_term: true
	}
	param {
		name: "scale4b16_branch2b_0"
	      lr_mult: 0
	}
	param {
		name: "scale4b16_branch2b_1"
	      lr_mult: 0
	}
}

layer {
	top: "res4b16_branch2b_i3"
	bottom: "res4b16_branch2b_i3"
	name: "res4b16_branch2b_relu_i3"
	type: "ReLU"
}

layer {
	bottom: "res4b16_branch2b_i3"
	top: "res4b16_branch2c_i3"
	name: "res4b16_branch2c_i3"
	type: "Convolution"
	param {
		name: "res4b16_branch2c_0"
               lr_mult: 1
               decay_mult: 1
        }
        convolution_param {
		num_output: 1024
		kernel_size: 1
		pad: 0
		stride: 1
		bias_term: false
	}
}

layer {
	bottom: "res4b16_branch2c_i3"
	top: "res4b16_branch2c_i3"
	name: "bn4b16_branch2c_i3"
	type: "BatchNorm"
	batch_norm_param {
		use_global_stats: true
	}
	param {
		name: "bn4b16_branch2c_0"
	      lr_mult: 0
	}
	param {
		name: "bn4b16_branch2c_1"
	      lr_mult: 0
        }
	param {
		name: "bn4b16_branch2c_2"
	      lr_mult: 0
        }
}

layer {
	bottom: "res4b16_branch2c_i3"
	top: "res4b16_branch2c_i3"
	name: "scale4b16_branch2c_i3"
	type: "Scale"
	scale_param {
		bias_term: true
	}
	param {
		name: "scale4b16_branch2c_0"
	      lr_mult: 0
	}
	param {
		name: "scale4b16_branch2c_1"
	      lr_mult: 0
	}
}

layer {
	bottom: "res4b15_i3"
	bottom: "res4b16_branch2c_i3"
	top: "res4b16_i3"
	name: "res4b16_i3"
	type: "Eltwise"
}

layer {
	bottom: "res4b16_i3"
	top: "res4b16_i3"
	name: "res4b16_relu_i3"
	type: "ReLU"
}

### data prep. for res4b17 ###
layer {
  bottom: "res4b16_i3"
  top: "res4b16_norm_i3"
  name: "res4b16_norm_i3"
  type: "Normalize"
  param {
    lr_mult: 10
    decay_mult: 1
    name: "res4b16_nw_i3"
  }
  norm_param {
    scale_filler {
      type: "constant"
      value: 1
    }
  across_spatial: false
  channel_shared: false
  fix_scale: false
  }
}
layer {
  bottom: "res4b16_norm_i3"
  top: "res4b16_norm_i3"
  name: "res4b16_norm_drop_i3"
  type: "Dropout"
  dropout_param {
    dropout_ratio: 0.3
  }
}

layer {
  bottom: "res4b16_norm_i3"
  bottom: "res5c_res4b17_norm_i3"
  top: "hyb_data_res4b17_i3"
  name: "hyb_data_res4b17_i3"
  type: "Eltwise"
  eltwise_param {
    operation: SUM
  }
}
### END data prep. for res4b9 ###

layer {
	bottom: "hyb_data_res4b17_i3"
	top: "res4b17_branch2a_i3"
	name: "res4b17_branch2a_i3"
	type: "Convolution"
	param {
		name: "res4b17_branch2a_0"
               lr_mult: 1
               decay_mult: 1
        }
        convolution_param {
		num_output: 256
		kernel_size: 1
		pad: 0
		stride: 1
		bias_term: false
	}
}

layer {
	bottom: "res4b17_branch2a_i3"
	top: "res4b17_branch2a_i3"
	name: "bn4b17_branch2a_i3"
	type: "BatchNorm"
	batch_norm_param {
		use_global_stats: true
	}
	param {
		name: "bn4b17_branch2a_0"
	      lr_mult: 0
	}
	param {
		name: "bn4b17_branch2a_1"
	      lr_mult: 0
        }
	param {
		name: "bn4b17_branch2a_2"
	      lr_mult: 0
        }
}

layer {
	bottom: "res4b17_branch2a_i3"
	top: "res4b17_branch2a_i3"
	name: "scale4b17_branch2a_i3"
	type: "Scale"
	scale_param {
		bias_term: true
	}
	param {
		name: "scale4b17_branch2a_0"
	      lr_mult: 0
	}
	param {
		name: "scale4b17_branch2a_1"
	      lr_mult: 0
	}
}

layer {
	top: "res4b17_branch2a_i3"
	bottom: "res4b17_branch2a_i3"
	name: "res4b17_branch2a_relu_i3"
	type: "ReLU"
}

layer {
	bottom: "res4b17_branch2a_i3"
	top: "res4b17_branch2b_i3"
	name: "res4b17_branch2b_i3"
	type: "Convolution"
	param {
		name: "res4b17_branch2b_0"
               lr_mult: 1
               decay_mult: 1
        }
        convolution_param {
		num_output: 256
		kernel_size: 3
		pad: 2
		dilation: 2
		stride: 1
		bias_term: false
	}
}

layer {
	bottom: "res4b17_branch2b_i3"
	top: "res4b17_branch2b_i3"
	name: "bn4b17_branch2b_i3"
	type: "BatchNorm"
	batch_norm_param {
		use_global_stats: true
	}
	param {
		name: "bn4b17_branch2b_0"
	      lr_mult: 0
	}
	param {
		name: "bn4b17_branch2b_1"
	      lr_mult: 0
        }
	param {
		name: "bn4b17_branch2b_2"
	      lr_mult: 0
        }
}

layer {
	bottom: "res4b17_branch2b_i3"
	top: "res4b17_branch2b_i3"
	name: "scale4b17_branch2b_i3"
	type: "Scale"
	scale_param {
		bias_term: true
	}
	param {
		name: "scale4b17_branch2b_0"
	      lr_mult: 0
	}
	param {
		name: "scale4b17_branch2b_1"
	      lr_mult: 0
	}
}

layer {
	top: "res4b17_branch2b_i3"
	bottom: "res4b17_branch2b_i3"
	name: "res4b17_branch2b_relu_i3"
	type: "ReLU"
}

layer {
	bottom: "res4b17_branch2b_i3"
	top: "res4b17_branch2c_i3"
	name: "res4b17_branch2c_i3"
	type: "Convolution"
	param {
		name: "res4b17_branch2c_0"
               lr_mult: 1
               decay_mult: 1
        }
        convolution_param {
		num_output: 1024
		kernel_size: 1
		pad: 0
		stride: 1
		bias_term: false
	}
}

layer {
	bottom: "res4b17_branch2c_i3"
	top: "res4b17_branch2c_i3"
	name: "bn4b17_branch2c_i3"
	type: "BatchNorm"
	batch_norm_param {
		use_global_stats: true
	}
	param {
		name: "bn4b17_branch2c_0"
	      lr_mult: 0
	}
	param {
		name: "bn4b17_branch2c_1"
	      lr_mult: 0
        }
	param {
		name: "bn4b17_branch2c_2"
	      lr_mult: 0
        }
}

layer {
	bottom: "res4b17_branch2c_i3"
	top: "res4b17_branch2c_i3"
	name: "scale4b17_branch2c_i3"
	type: "Scale"
	scale_param {
		bias_term: true
	}
	param {
		name: "scale4b17_branch2c_0"
	      lr_mult: 0
	}
	param {
		name: "scale4b17_branch2c_1"
	      lr_mult: 0
	}
}

layer {
	bottom: "hyb_data_res4b17_i3"
	bottom: "res4b17_branch2c_i3"
	top: "res4b17_i3"
	name: "res4b17_i3"
	type: "Eltwise"
}

layer {
	bottom: "res4b17_i3"
	top: "res4b17_i3"
	name: "res4b17_relu_i3"
	type: "ReLU"
}

layer {
	bottom: "res4b17_i3"
	top: "res4b18_branch2a_i3"
	name: "res4b18_branch2a_i3"
	type: "Convolution"
	param {
		name: "res4b18_branch2a_0"
               lr_mult: 1
               decay_mult: 1
        }
        convolution_param {
		num_output: 256
		kernel_size: 1
		pad: 0
		stride: 1
		bias_term: false
	}
}

layer {
	bottom: "res4b18_branch2a_i3"
	top: "res4b18_branch2a_i3"
	name: "bn4b18_branch2a_i3"
	type: "BatchNorm"
	batch_norm_param {
		use_global_stats: true
	}
	param {
		name: "bn4b18_branch2a_0"
	      lr_mult: 0
	}
	param {
		name: "bn4b18_branch2a_1"
	      lr_mult: 0
        }
	param {
		name: "bn4b18_branch2a_2"
	      lr_mult: 0
        }
}

layer {
	bottom: "res4b18_branch2a_i3"
	top: "res4b18_branch2a_i3"
	name: "scale4b18_branch2a_i3"
	type: "Scale"
	scale_param {
		bias_term: true
	}
	param {
		name: "scale4b18_branch2a_0"
	      lr_mult: 0
	}
	param {
		name: "scale4b18_branch2a_1"
	      lr_mult: 0
	}
}

layer {
	top: "res4b18_branch2a_i3"
	bottom: "res4b18_branch2a_i3"
	name: "res4b18_branch2a_relu_i3"
	type: "ReLU"
}

layer {
	bottom: "res4b18_branch2a_i3"
	top: "res4b18_branch2b_i3"
	name: "res4b18_branch2b_i3"
	type: "Convolution"
	param {
		name: "res4b18_branch2b_0"
               lr_mult: 1
               decay_mult: 1
        }
        convolution_param {
		num_output: 256
		kernel_size: 3
		pad: 2
		dilation: 2
		stride: 1
		bias_term: false
	}
}

layer {
	bottom: "res4b18_branch2b_i3"
	top: "res4b18_branch2b_i3"
	name: "bn4b18_branch2b_i3"
	type: "BatchNorm"
	batch_norm_param {
		use_global_stats: true
	}
	param {
		name: "bn4b18_branch2b_0"
	      lr_mult: 0
	}
	param {
		name: "bn4b18_branch2b_1"
	      lr_mult: 0
        }
	param {
		name: "bn4b18_branch2b_2"
	      lr_mult: 0
        }
}

layer {
	bottom: "res4b18_branch2b_i3"
	top: "res4b18_branch2b_i3"
	name: "scale4b18_branch2b_i3"
	type: "Scale"
	scale_param {
		bias_term: true
	}
	param {
		name: "scale4b18_branch2b_0"
	      lr_mult: 0
	}
	param {
		name: "scale4b18_branch2b_1"
	      lr_mult: 0
	}
}

layer {
	top: "res4b18_branch2b_i3"
	bottom: "res4b18_branch2b_i3"
	name: "res4b18_branch2b_relu_i3"
	type: "ReLU"
}

layer {
	bottom: "res4b18_branch2b_i3"
	top: "res4b18_branch2c_i3"
	name: "res4b18_branch2c_i3"
	type: "Convolution"
	param {
		name: "res4b18_branch2c_0"
               lr_mult: 1
               decay_mult: 1
        }
        convolution_param {
		num_output: 1024
		kernel_size: 1
		pad: 0
		stride: 1
		bias_term: false
	}
}

layer {
	bottom: "res4b18_branch2c_i3"
	top: "res4b18_branch2c_i3"
	name: "bn4b18_branch2c_i3"
	type: "BatchNorm"
	batch_norm_param {
		use_global_stats: true
	}
	param {
		name: "bn4b18_branch2c_0"
	      lr_mult: 0
	}
	param {
		name: "bn4b18_branch2c_1"
	      lr_mult: 0
        }
	param {
		name: "bn4b18_branch2c_2"
	      lr_mult: 0
        }
}

layer {
	bottom: "res4b18_branch2c_i3"
	top: "res4b18_branch2c_i3"
	name: "scale4b18_branch2c_i3"
	type: "Scale"
	scale_param {
		bias_term: true
	}
	param {
		name: "scale4b18_branch2c_0"
	      lr_mult: 0
	}
	param {
		name: "scale4b18_branch2c_1"
	      lr_mult: 0
	}
}

layer {
	bottom: "res4b17_i3"
	bottom: "res4b18_branch2c_i3"
	top: "res4b18_i3"
	name: "res4b18_i3"
	type: "Eltwise"
}

layer {
	bottom: "res4b18_i3"
	top: "res4b18_i3"
	name: "res4b18_relu_i3"
	type: "ReLU"
}

layer {
	bottom: "res4b18_i3"
	top: "res4b19_branch2a_i3"
	name: "res4b19_branch2a_i3"
	type: "Convolution"
	param {
		name: "res4b19_branch2a_0"
               lr_mult: 1
               decay_mult: 1
        }
        convolution_param {
		num_output: 256
		kernel_size: 1
		pad: 0
		stride: 1
		bias_term: false
	}
}

layer {
	bottom: "res4b19_branch2a_i3"
	top: "res4b19_branch2a_i3"
	name: "bn4b19_branch2a_i3"
	type: "BatchNorm"
	batch_norm_param {
		use_global_stats: true
	}
	param {
		name: "bn4b19_branch2a_0"
	      lr_mult: 0
	}
	param {
		name: "bn4b19_branch2a_1"
	      lr_mult: 0
        }
	param {
		name: "bn4b19_branch2a_2"
	      lr_mult: 0
        }
}

layer {
	bottom: "res4b19_branch2a_i3"
	top: "res4b19_branch2a_i3"
	name: "scale4b19_branch2a_i3"
	type: "Scale"
	scale_param {
		bias_term: true
	}
	param {
		name: "scale4b19_branch2a_0"
	      lr_mult: 0
	}
	param {
		name: "scale4b19_branch2a_1"
	      lr_mult: 0
	}
}

layer {
	top: "res4b19_branch2a_i3"
	bottom: "res4b19_branch2a_i3"
	name: "res4b19_branch2a_relu_i3"
	type: "ReLU"
}

layer {
	bottom: "res4b19_branch2a_i3"
	top: "res4b19_branch2b_i3"
	name: "res4b19_branch2b_i3"
	type: "Convolution"
	param {
		name: "res4b19_branch2b_0"
               lr_mult: 1
               decay_mult: 1
        }
        convolution_param {
		num_output: 256
		kernel_size: 3
		pad: 2
		dilation: 2
		stride: 1
		bias_term: false
	}
}

layer {
	bottom: "res4b19_branch2b_i3"
	top: "res4b19_branch2b_i3"
	name: "bn4b19_branch2b_i3"
	type: "BatchNorm"
	batch_norm_param {
		use_global_stats: true
	}
	param {
		name: "bn4b19_branch2b_0"
	      lr_mult: 0
	}
	param {
		name: "bn4b19_branch2b_1"
	      lr_mult: 0
        }
	param {
		name: "bn4b19_branch2b_2"
	      lr_mult: 0
        }
}

layer {
	bottom: "res4b19_branch2b_i3"
	top: "res4b19_branch2b_i3"
	name: "scale4b19_branch2b_i3"
	type: "Scale"
	scale_param {
		bias_term: true
	}
	param {
		name: "scale4b19_branch2b_0"
	      lr_mult: 0
	}
	param {
		name: "scale4b19_branch2b_1"
	      lr_mult: 0
	}
}

layer {
	top: "res4b19_branch2b_i3"
	bottom: "res4b19_branch2b_i3"
	name: "res4b19_branch2b_relu_i3"
	type: "ReLU"
}

layer {
	bottom: "res4b19_branch2b_i3"
	top: "res4b19_branch2c_i3"
	name: "res4b19_branch2c_i3"
	type: "Convolution"
	param {
		name: "res4b19_branch2c_0"
               lr_mult: 1
               decay_mult: 1
        }
        convolution_param {
		num_output: 1024
		kernel_size: 1
		pad: 0
		stride: 1
		bias_term: false
	}
}

layer {
	bottom: "res4b19_branch2c_i3"
	top: "res4b19_branch2c_i3"
	name: "bn4b19_branch2c_i3"
	type: "BatchNorm"
	batch_norm_param {
		use_global_stats: true
	}
	param {
		name: "bn4b19_branch2c_0"
	      lr_mult: 0
	}
	param {
		name: "bn4b19_branch2c_1"
	      lr_mult: 0
        }
	param {
		name: "bn4b19_branch2c_2"
	      lr_mult: 0
        }
}

layer {
	bottom: "res4b19_branch2c_i3"
	top: "res4b19_branch2c_i3"
	name: "scale4b19_branch2c_i3"
	type: "Scale"
	scale_param {
		bias_term: true
	}
	param {
		name: "scale4b19_branch2c_0"
	      lr_mult: 0
	}
	param {
		name: "scale4b19_branch2c_1"
	      lr_mult: 0
	}
}

layer {
	bottom: "res4b18_i3"
	bottom: "res4b19_branch2c_i3"
	top: "res4b19_i3"
	name: "res4b19_i3"
	type: "Eltwise"
}

layer {
	bottom: "res4b19_i3"
	top: "res4b19_i3"
	name: "res4b19_relu_i3"
	type: "ReLU"
}

layer {
	bottom: "res4b19_i3"
	top: "res4b20_branch2a_i3"
	name: "res4b20_branch2a_i3"
	type: "Convolution"
	param {
		name: "res4b20_branch2a_0"
               lr_mult: 1
               decay_mult: 1
        }
        convolution_param {
		num_output: 256
		kernel_size: 1
		pad: 0
		stride: 1
		bias_term: false
	}
}

layer {
	bottom: "res4b20_branch2a_i3"
	top: "res4b20_branch2a_i3"
	name: "bn4b20_branch2a_i3"
	type: "BatchNorm"
	batch_norm_param {
		use_global_stats: true
	}
	param {
		name: "bn4b20_branch2a_0"
	      lr_mult: 0
	}
	param {
		name: "bn4b20_branch2a_1"
	      lr_mult: 0
        }
	param {
		name: "bn4b20_branch2a_2"
	      lr_mult: 0
        }
}

layer {
	bottom: "res4b20_branch2a_i3"
	top: "res4b20_branch2a_i3"
	name: "scale4b20_branch2a_i3"
	type: "Scale"
	scale_param {
		bias_term: true
	}
	param {
		name: "scale4b20_branch2a_0"
	      lr_mult: 0
	}
	param {
		name: "scale4b20_branch2a_1"
	      lr_mult: 0
	}
}

layer {
	top: "res4b20_branch2a_i3"
	bottom: "res4b20_branch2a_i3"
	name: "res4b20_branch2a_relu_i3"
	type: "ReLU"
}

layer {
	bottom: "res4b20_branch2a_i3"
	top: "res4b20_branch2b_i3"
	name: "res4b20_branch2b_i3"
	type: "Convolution"
	param {
		name: "res4b20_branch2b_0"
               lr_mult: 1
               decay_mult: 1
        }
        convolution_param {
		num_output: 256
		kernel_size: 3
		pad: 2
		dilation: 2
		stride: 1
		bias_term: false
	}
}

layer {
	bottom: "res4b20_branch2b_i3"
	top: "res4b20_branch2b_i3"
	name: "bn4b20_branch2b_i3"
	type: "BatchNorm"
	batch_norm_param {
		use_global_stats: true
	}
	param {
		name: "bn4b20_branch2b_0"
	      lr_mult: 0
	}
	param {
		name: "bn4b20_branch2b_1"
	      lr_mult: 0
        }
	param {
		name: "bn4b20_branch2b_2"
	      lr_mult: 0
        }
}

layer {
	bottom: "res4b20_branch2b_i3"
	top: "res4b20_branch2b_i3"
	name: "scale4b20_branch2b_i3"
	type: "Scale"
	scale_param {
		bias_term: true
	}
	param {
		name: "scale4b20_branch2b_0"
	      lr_mult: 0
	}
	param {
		name: "scale4b20_branch2b_1"
	      lr_mult: 0
	}
}

layer {
	top: "res4b20_branch2b_i3"
	bottom: "res4b20_branch2b_i3"
	name: "res4b20_branch2b_relu_i3"
	type: "ReLU"
}

layer {
	bottom: "res4b20_branch2b_i3"
	top: "res4b20_branch2c_i3"
	name: "res4b20_branch2c_i3"
	type: "Convolution"
	param {
		name: "res4b20_branch2c_0"
               lr_mult: 1
               decay_mult: 1
        }
        convolution_param {
		num_output: 1024
		kernel_size: 1
		pad: 0
		stride: 1
		bias_term: false
	}
}

layer {
	bottom: "res4b20_branch2c_i3"
	top: "res4b20_branch2c_i3"
	name: "bn4b20_branch2c_i3"
	type: "BatchNorm"
	batch_norm_param {
		use_global_stats: true
	}
	param {
		name: "bn4b20_branch2c_0"
	      lr_mult: 0
	}
	param {
		name: "bn4b20_branch2c_1"
	      lr_mult: 0
        }
	param {
		name: "bn4b20_branch2c_2"
	      lr_mult: 0
        }
}

layer {
	bottom: "res4b20_branch2c_i3"
	top: "res4b20_branch2c_i3"
	name: "scale4b20_branch2c_i3"
	type: "Scale"
	scale_param {
		bias_term: true
	}
	param {
		name: "scale4b20_branch2c_0"
	      lr_mult: 0
	}
	param {
		name: "scale4b20_branch2c_1"
	      lr_mult: 0
	}
}

layer {
	bottom: "res4b19_i3"
	bottom: "res4b20_branch2c_i3"
	top: "res4b20_i3"
	name: "res4b20_i3"
	type: "Eltwise"
}

layer {
	bottom: "res4b20_i3"
	top: "res4b20_i3"
	name: "res4b20_relu_i3"
	type: "ReLU"
}

layer {
	bottom: "res4b20_i3"
	top: "res4b21_branch2a_i3"
	name: "res4b21_branch2a_i3"
	type: "Convolution"
	param {
		name: "res4b21_branch2a_0"
               lr_mult: 1
               decay_mult: 1
        }
        convolution_param {
		num_output: 256
		kernel_size: 1
		pad: 0
		stride: 1
		bias_term: false
	}
}

layer {
	bottom: "res4b21_branch2a_i3"
	top: "res4b21_branch2a_i3"
	name: "bn4b21_branch2a_i3"
	type: "BatchNorm"
	batch_norm_param {
		use_global_stats: true
	}
	param {
		name: "bn4b21_branch2a_0"
	      lr_mult: 0
	}
	param {
		name: "bn4b21_branch2a_1"
	      lr_mult: 0
        }
	param {
		name: "bn4b21_branch2a_2"
	      lr_mult: 0
        }
}

layer {
	bottom: "res4b21_branch2a_i3"
	top: "res4b21_branch2a_i3"
	name: "scale4b21_branch2a_i3"
	type: "Scale"
	scale_param {
		bias_term: true
	}
	param {
		name: "scale4b21_branch2a_0"
	      lr_mult: 0
	}
	param {
		name: "scale4b21_branch2a_1"
	      lr_mult: 0
	}
}

layer {
	top: "res4b21_branch2a_i3"
	bottom: "res4b21_branch2a_i3"
	name: "res4b21_branch2a_relu_i3"
	type: "ReLU"
}

layer {
	bottom: "res4b21_branch2a_i3"
	top: "res4b21_branch2b_i3"
	name: "res4b21_branch2b_i3"
	type: "Convolution"
	param {
		name: "res4b21_branch2b_0"
               lr_mult: 1
               decay_mult: 1
        }
        convolution_param {
		num_output: 256
		kernel_size: 3
		pad: 2
		dilation: 2
		stride: 1
		bias_term: false
	}
}

layer {
	bottom: "res4b21_branch2b_i3"
	top: "res4b21_branch2b_i3"
	name: "bn4b21_branch2b_i3"
	type: "BatchNorm"
	batch_norm_param {
		use_global_stats: true
	}
	param {
		name: "bn4b21_branch2b_0"
	      lr_mult: 0
	}
	param {
		name: "bn4b21_branch2b_1"
	      lr_mult: 0
        }
	param {
		name: "bn4b21_branch2b_2"
	      lr_mult: 0
        }
}

layer {
	bottom: "res4b21_branch2b_i3"
	top: "res4b21_branch2b_i3"
	name: "scale4b21_branch2b_i3"
	type: "Scale"
	scale_param {
		bias_term: true
	}
	param {
		name: "scale4b21_branch2b_0"
	      lr_mult: 0
	}
	param {
		name: "scale4b21_branch2b_1"
	      lr_mult: 0
	}
}

layer {
	top: "res4b21_branch2b_i3"
	bottom: "res4b21_branch2b_i3"
	name: "res4b21_branch2b_relu_i3"
	type: "ReLU"
}

layer {
	bottom: "res4b21_branch2b_i3"
	top: "res4b21_branch2c_i3"
	name: "res4b21_branch2c_i3"
	type: "Convolution"
	param {
		name: "res4b21_branch2c_0"
               lr_mult: 1
               decay_mult: 1
        }
        convolution_param {
		num_output: 1024
		kernel_size: 1
		pad: 0
		stride: 1
		bias_term: false
	}
}

layer {
	bottom: "res4b21_branch2c_i3"
	top: "res4b21_branch2c_i3"
	name: "bn4b21_branch2c_i3"
	type: "BatchNorm"
	batch_norm_param {
		use_global_stats: true
	}
	param {
		name: "bn4b21_branch2c_0"
	      lr_mult: 0
	}
	param {
		name: "bn4b21_branch2c_1"
	      lr_mult: 0
        }
	param {
		name: "bn4b21_branch2c_2"
	      lr_mult: 0
        }
}

layer {
	bottom: "res4b21_branch2c_i3"
	top: "res4b21_branch2c_i3"
	name: "scale4b21_branch2c_i3"
	type: "Scale"
	scale_param {
		bias_term: true
	}
	param {
		name: "scale4b21_branch2c_0"
	      lr_mult: 0
	}
	param {
		name: "scale4b21_branch2c_1"
	      lr_mult: 0
	}
}

layer {
	bottom: "res4b20_i3"
	bottom: "res4b21_branch2c_i3"
	top: "res4b21_i3"
	name: "res4b21_i3"
	type: "Eltwise"
}

layer {
	bottom: "res4b21_i3"
	top: "res4b21_i3"
	name: "res4b21_relu_i3"
	type: "ReLU"
}

layer {
	bottom: "res4b21_i3"
	top: "res4b22_branch2a_i3"
	name: "res4b22_branch2a_i3"
	type: "Convolution"
	param {
		name: "res4b22_branch2a_0"
               lr_mult: 1
               decay_mult: 1
        }
        convolution_param {
		num_output: 256
		kernel_size: 1
		pad: 0
		stride: 1
		bias_term: false
	}
}

layer {
	bottom: "res4b22_branch2a_i3"
	top: "res4b22_branch2a_i3"
	name: "bn4b22_branch2a_i3"
	type: "BatchNorm"
	batch_norm_param {
		use_global_stats: true
	}
	param {
		name: "bn4b22_branch2a_0"
	      lr_mult: 0
	}
	param {
		name: "bn4b22_branch2a_1"
	      lr_mult: 0
        }
	param {
		name: "bn4b22_branch2a_2"
	      lr_mult: 0
        }
}

layer {
	bottom: "res4b22_branch2a_i3"
	top: "res4b22_branch2a_i3"
	name: "scale4b22_branch2a_i3"
	type: "Scale"
	scale_param {
		bias_term: true
	}
	param {
		name: "scale4b22_branch2a_0"
	      lr_mult: 0
	}
	param {
		name: "scale4b22_branch2a_1"
	      lr_mult: 0
	}
}

layer {
	top: "res4b22_branch2a_i3"
	bottom: "res4b22_branch2a_i3"
	name: "res4b22_branch2a_relu_i3"
	type: "ReLU"
}

layer {
	bottom: "res4b22_branch2a_i3"
	top: "res4b22_branch2b_i3"
	name: "res4b22_branch2b_i3"
	type: "Convolution"
	param {
		name: "res4b22_branch2b_0"
               lr_mult: 1
               decay_mult: 1
        }
        convolution_param {
		num_output: 256
		kernel_size: 3
		pad: 2
		dilation: 2
		stride: 1
		bias_term: false
	}
}

layer {
	bottom: "res4b22_branch2b_i3"
	top: "res4b22_branch2b_i3"
	name: "bn4b22_branch2b_i3"
	type: "BatchNorm"
	batch_norm_param {
		use_global_stats: true
	}
	param {
		name: "bn4b22_branch2b_0"
	      lr_mult: 0
	}
	param {
		name: "bn4b22_branch2b_1"
	      lr_mult: 0
        }
	param {
		name: "bn4b22_branch2b_2"
	      lr_mult: 0
        }
}

layer {
	bottom: "res4b22_branch2b_i3"
	top: "res4b22_branch2b_i3"
	name: "scale4b22_branch2b_i3"
	type: "Scale"
	scale_param {
		bias_term: true
	}
	param {
		name: "scale4b22_branch2b_0"
	      lr_mult: 0
	}
	param {
		name: "scale4b22_branch2b_1"
	      lr_mult: 0
	}
}

layer {
	top: "res4b22_branch2b_i3"
	bottom: "res4b22_branch2b_i3"
	name: "res4b22_branch2b_relu_i3"
	type: "ReLU"
}

layer {
	bottom: "res4b22_branch2b_i3"
	top: "res4b22_branch2c_i3"
	name: "res4b22_branch2c_i3"
	type: "Convolution"
	param {
		name: "res4b22_branch2c_0"
               lr_mult: 1
               decay_mult: 1
        }
        convolution_param {
		num_output: 1024
		kernel_size: 1
		pad: 0
		stride: 1
		bias_term: false
	}
}

layer {
	bottom: "res4b22_branch2c_i3"
	top: "res4b22_branch2c_i3"
	name: "bn4b22_branch2c_i3"
	type: "BatchNorm"
	batch_norm_param {
		use_global_stats: true
	}
	param {
		name: "bn4b22_branch2c_0"
	      lr_mult: 0
	}
	param {
		name: "bn4b22_branch2c_1"
	      lr_mult: 0
        }
	param {
		name: "bn4b22_branch2c_2"
	      lr_mult: 0
        }
}

layer {
	bottom: "res4b22_branch2c_i3"
	top: "res4b22_branch2c_i3"
	name: "scale4b22_branch2c_i3"
	type: "Scale"
	scale_param {
		bias_term: true
	}
	param {
		name: "scale4b22_branch2c_0"
	      lr_mult: 0
	}
	param {
		name: "scale4b22_branch2c_1"
	      lr_mult: 0
	}
}

layer {
	bottom: "res4b21_i3"
	bottom: "res4b22_branch2c_i3"
	top: "res4b22_i3"
	name: "res4b22_i3"
	type: "Eltwise"
}

layer {
	bottom: "res4b22_i3"
	top: "res4b22_i3"
	name: "res4b22_relu_i3"
	type: "ReLU"
}

### data prep. for res5a ###
layer {
  bottom: "res4b22_i3"
  top: "res4b22_norm_i3"
  name: "res4b22_norm_i3"
  type: "Normalize"
  param {
    lr_mult: 10
    decay_mult: 1
    name: "res4b22_nw_i3"
  }
  norm_param {
    scale_filler {
      type: "constant"
      value: 1
    }
  across_spatial: false
  channel_shared: false
  fix_scale: false
  }
}
layer {
  bottom: "res4b22_norm_i3"
  top: "res4b22_norm_i3"
  name: "res4b22_norm_drop_i3"
  type: "Dropout"
  dropout_param {
    dropout_ratio: 0.3
  }
}

layer {
  bottom: "res4b22_norm_i3"
  bottom: "res5c_res5a_norm_i3"
  top: "hyb_data_res5a_i3"
  name: "hyb_data_res5a_i3"
  type: "Eltwise"
  eltwise_param {
    operation: SUM
  }
}
### END data prep. for res5a ###

layer {
	bottom: "hyb_data_res5a_i3"
	top: "res5a_branch1_i3"
	name: "res5a_branch1_i3"
	type: "Convolution"
	param {
		name: "res5a_branch1_0"
               lr_mult: 1
               decay_mult: 1
        }
        convolution_param {
		num_output: 2048
		kernel_size: 1
		pad: 0
		stride: 1
		bias_term: false
	}
}

layer {
	bottom: "res5a_branch1_i3"
	top: "res5a_branch1_i3"
	name: "bn5a_branch1_i3"
	type: "BatchNorm"
	batch_norm_param {
		use_global_stats: true
	}
	param {
		name: "bn5a_branch1_0"
	      lr_mult: 0
	}
	param {
		name: "bn5a_branch1_1"
	      lr_mult: 0
        }
	param {
		name: "bn5a_branch1_2"
	      lr_mult: 0
        }
}

layer {
	bottom: "res5a_branch1_i3"
	top: "res5a_branch1_i3"
	name: "scale5a_branch1_i3"
	type: "Scale"
	scale_param {
		bias_term: true
	}
	param {
		name: "scale5a_branch1_0"
	      lr_mult: 0
	}
	param {
		name: "scale5a_branch1_1"
	      lr_mult: 0
	}
}

layer {
	bottom: "hyb_data_res5a_i3"
	top: "res5a_branch2a_i3"
	name: "res5a_branch2a_i3"
	type: "Convolution"
	param {
		name: "res5a_branch2a_0"
               lr_mult: 1
               decay_mult: 1
        }
        convolution_param {
		num_output: 512
		kernel_size: 1
		pad: 0
		stride: 1
		bias_term: false
	}
}

layer {
	bottom: "res5a_branch2a_i3"
	top: "res5a_branch2a_i3"
	name: "bn5a_branch2a_i3"
	type: "BatchNorm"
	batch_norm_param {
		use_global_stats: true
	}
	param {
		name: "bn5a_branch2a_0"
	      lr_mult: 0
	}
	param {
		name: "bn5a_branch2a_1"
	      lr_mult: 0
        }
	param {
		name: "bn5a_branch2a_2"
	      lr_mult: 0
        }
}

layer {
	bottom: "res5a_branch2a_i3"
	top: "res5a_branch2a_i3"
	name: "scale5a_branch2a_i3"
	type: "Scale"
	scale_param {
		bias_term: true
	}
	param {
		name: "scale5a_branch2a_0"
	      lr_mult: 0
	}
	param {
		name: "scale5a_branch2a_1"
	      lr_mult: 0
	}
}

layer {
	top: "res5a_branch2a_i3"
	bottom: "res5a_branch2a_i3"
	name: "res5a_branch2a_relu_i3"
	type: "ReLU"
}

layer {
	bottom: "res5a_branch2a_i3"
	top: "res5a_branch2b_i3"
	name: "res5a_branch2b_i3"
	type: "Convolution"
	param {
		name: "res5a_branch2b_0"
               lr_mult: 1
               decay_mult: 1
        }
        convolution_param {
		num_output: 512
		kernel_size: 3
		pad: 4
		dilation: 4
		stride: 1
		bias_term: false
	}
}

layer {
	bottom: "res5a_branch2b_i3"
	top: "res5a_branch2b_i3"
	name: "bn5a_branch2b_i3"
	type: "BatchNorm"
	batch_norm_param {
		use_global_stats: true
	}
	param {
		name: "bn5a_branch2b_0"
	      lr_mult: 0
	}
	param {
		name: "bn5a_branch2b_1"
	      lr_mult: 0
        }
	param {
		name: "bn5a_branch2b_2"
	      lr_mult: 0
        }
}

layer {
	bottom: "res5a_branch2b_i3"
	top: "res5a_branch2b_i3"
	name: "scale5a_branch2b_i3"
	type: "Scale"
	scale_param {
		bias_term: true
	}
	param {
		name: "scale5a_branch2b_0"
	      lr_mult: 0
	}
	param {
		name: "scale5a_branch2b_1"
	      lr_mult: 0
	}
}

layer {
	top: "res5a_branch2b_i3"
	bottom: "res5a_branch2b_i3"
	name: "res5a_branch2b_relu_i3"
	type: "ReLU"
}

layer {
	bottom: "res5a_branch2b_i3"
	top: "res5a_branch2c_i3"
	name: "res5a_branch2c_i3"
	type: "Convolution"
	param {
		name: "res5a_branch2c_0"
               lr_mult: 1
               decay_mult: 1
        }
        convolution_param {
		num_output: 2048
		kernel_size: 1
		pad: 0
		stride: 1
		bias_term: false
	}
}

layer {
	bottom: "res5a_branch2c_i3"
	top: "res5a_branch2c_i3"
	name: "bn5a_branch2c_i3"
	type: "BatchNorm"
	batch_norm_param {
		use_global_stats: true
	}
	param {
		name: "bn5a_branch2c_0"
	      lr_mult: 0
	}
	param {
		name: "bn5a_branch2c_1"
	      lr_mult: 0
        }
	param {
		name: "bn5a_branch2c_2"
	      lr_mult: 0
        }
}

layer {
	bottom: "res5a_branch2c_i3"
	top: "res5a_branch2c_i3"
	name: "scale5a_branch2c_i3"
	type: "Scale"
	scale_param {
		bias_term: true
	}
	param {
		name: "scale5a_branch2c_0"
	      lr_mult: 0
	}
	param {
		name: "scale5a_branch2c_1"
	      lr_mult: 0
	}
}

layer {
	bottom: "res5a_branch1_i3"
	bottom: "res5a_branch2c_i3"
	top: "res5a_i3"
	name: "res5a_i3"
	type: "Eltwise"
}

layer {
	bottom: "res5a_i3"
	top: "res5a_i3"
	name: "res5a_relu_i3"
	type: "ReLU"
}

layer {
	bottom: "res5a_i3"
	top: "res5b_branch2a_i3"
	name: "res5b_branch2a_i3"
	type: "Convolution"
	param {
		name: "res5b_branch2a_0"
               lr_mult: 1
               decay_mult: 1
        }
        convolution_param {
		num_output: 512
		kernel_size: 1
		pad: 0
		stride: 1
		bias_term: false
	}
}

layer {
	bottom: "res5b_branch2a_i3"
	top: "res5b_branch2a_i3"
	name: "bn5b_branch2a_i3"
	type: "BatchNorm"
	batch_norm_param {
		use_global_stats: true
	}
	param {
		name: "bn5b_branch2a_0"
	      lr_mult: 0
	}
	param {
		name: "bn5b_branch2a_1"
	      lr_mult: 0
        }
	param {
		name: "bn5b_branch2a_2"
	      lr_mult: 0
        }
}

layer {
	bottom: "res5b_branch2a_i3"
	top: "res5b_branch2a_i3"
	name: "scale5b_branch2a_i3"
	type: "Scale"
	scale_param {
		bias_term: true
	}
	param {
		name: "scale5b_branch2a_0"
	      lr_mult: 0
	}
	param {
		name: "scale5b_branch2a_1"
	      lr_mult: 0
	}
}

layer {
	top: "res5b_branch2a_i3"
	bottom: "res5b_branch2a_i3"
	name: "res5b_branch2a_relu_i3"
	type: "ReLU"
}

layer {
	bottom: "res5b_branch2a_i3"
	top: "res5b_branch2b_i3"
	name: "res5b_branch2b_i3"
	type: "Convolution"
	param {
		name: "res5b_branch2b_0"
               lr_mult: 1
               decay_mult: 1
        }
        convolution_param {
		num_output: 512
		kernel_size: 3
		pad: 4
		dilation: 4
		stride: 1
		bias_term: false
	}
}

layer {
	bottom: "res5b_branch2b_i3"
	top: "res5b_branch2b_i3"
	name: "bn5b_branch2b_i3"
	type: "BatchNorm"
	batch_norm_param {
		use_global_stats: true
	}
	param {
		name: "bn5b_branch2b_0"
	      lr_mult: 0
	}
	param {
		name: "bn5b_branch2b_1"
	      lr_mult: 0
        }
	param {
		name: "bn5b_branch2b_2"
	      lr_mult: 0
        }
}

layer {
	bottom: "res5b_branch2b_i3"
	top: "res5b_branch2b_i3"
	name: "scale5b_branch2b_i3"
	type: "Scale"
	scale_param {
		bias_term: true
	}
	param {
		name: "scale5b_branch2b_0"
	      lr_mult: 0
	}
	param {
		name: "scale5b_branch2b_1"
	      lr_mult: 0
	}
}

layer {
	top: "res5b_branch2b_i3"
	bottom: "res5b_branch2b_i3"
	name: "res5b_branch2b_relu_i3"
	type: "ReLU"
}

layer {
	bottom: "res5b_branch2b_i3"
	top: "res5b_branch2c_i3"
	name: "res5b_branch2c_i3"
	type: "Convolution"
	param {
		name: "res5b_branch2c_0"
               lr_mult: 1
               decay_mult: 1
        }
        convolution_param {
		num_output: 2048
		kernel_size: 1
		pad: 0
		stride: 1
		bias_term: false
	}
}

layer {
	bottom: "res5b_branch2c_i3"
	top: "res5b_branch2c_i3"
	name: "bn5b_branch2c_i3"
	type: "BatchNorm"
	batch_norm_param {
		use_global_stats: true
	}
	param {
		name: "bn5b_branch2c_0"
	      lr_mult: 0
	}
	param {
		name: "bn5b_branch2c_1"
	      lr_mult: 0
        }
	param {
		name: "bn5b_branch2c_2"
	      lr_mult: 0
        }
}

layer {
	bottom: "res5b_branch2c_i3"
	top: "res5b_branch2c_i3"
	name: "scale5b_branch2c_i3"
	type: "Scale"
	scale_param {
		bias_term: true
	}
	param {
		name: "scale5b_branch2c_0"
	      lr_mult: 0
	}
	param {
		name: "scale5b_branch2c_1"
	      lr_mult: 0
	}
}

layer {
	bottom: "res5a_i3"
	bottom: "res5b_branch2c_i3"
	top: "res5b_i3"
	name: "res5b_i3"
	type: "Eltwise"
}

layer {
	bottom: "res5b_i3"
	top: "res5b_i3"
	name: "res5b_relu_i3"
	type: "ReLU"
}

### data prep. for res5c_i3 ###
layer {
  bottom: "res5b_i3"
  top: "res5b_norm_i3"
  name: "res5b_norm_i3"
  type: "Normalize"
  param {
    lr_mult: 10
    decay_mult: 1
    name: "res5b_nw_i3"
  }
  norm_param {
    scale_filler {
      type: "constant"
      value: 1
    }
  across_spatial: false
  channel_shared: false
  fix_scale: false
  }
}
layer {
  bottom: "res5b_norm_i3"
  top: "res5b_norm_i3"
  name: "res5b_norm_drop_i3"
  type: "Dropout"
  dropout_param {
    dropout_ratio: 0.3
  }
}

layer {
  bottom: "res5b_norm_i3"
  bottom: "res5c_res5c_norm_i3"
  top: "hyb_data_res5c_i3"
  name: "hyb_data_res5c_i3"
  type: "Eltwise"
  eltwise_param {
    operation: SUM
  }
}
### END data prep. for res5c_i3 ###

layer {
	bottom: "hyb_data_res5c_i3"
	top: "res5c_branch2a_i3"
	name: "res5c_branch2a_i3"
	type: "Convolution"
	param {
		name: "res5c_branch2a_0"
               lr_mult: 1
               decay_mult: 1
        }
        convolution_param {
		num_output: 512
		kernel_size: 1
		pad: 0
		stride: 1
		bias_term: false
	}
}

layer {
	bottom: "res5c_branch2a_i3"
	top: "res5c_branch2a_i3"
	name: "bn5c_branch2a_i3"
	type: "BatchNorm"
	batch_norm_param {
		use_global_stats: true
	}
	param {
	      name: "bn5c_branch2a_0"
	      lr_mult: 0
	}
	param {
	      name: "bn5c_branch2a_1"
	      lr_mult: 0
        }
	param {
		name: "bn5c_branch2a_2"
	      lr_mult: 0
        }
}

layer {
	bottom: "res5c_branch2a_i3"
	top: "res5c_branch2a_i3"
	name: "scale5c_branch2a_i3"
	type: "Scale"
	scale_param {
		bias_term: true
	}
	param {
		name: "scale5c_branch2a_0"
	      lr_mult: 0
	}
	param {
		name: "scale5c_branch2a_1"
	      lr_mult: 0
	}
}

layer {
	top: "res5c_branch2a_i3"
	bottom: "res5c_branch2a_i3"
	name: "res5c_branch2a_relu_i3"
	type: "ReLU"
}

layer {
	bottom: "res5c_branch2a_i3"
	top: "res5c_branch2b_i3"
	name: "res5c_branch2b_i3"
	type: "Convolution"
	param {
		name: "res5c_branch2b_0"
               lr_mult: 1
               decay_mult: 1
        }
        convolution_param {
		num_output: 512
		kernel_size: 3
		pad: 4
		dilation: 4
		stride: 1
		bias_term: false
	}
}

layer {
	bottom: "res5c_branch2b_i3"
	top: "res5c_branch2b_i3"
	name: "bn5c_branch2b_i3"
	type: "BatchNorm"
	batch_norm_param {
		use_global_stats: true
	}
	param {
		name: "bn5c_branch2b_0"
	      lr_mult: 0
	}
	param {
		name: "bn5c_branch2b_1"
	      lr_mult: 0
        }
	param {
		name: "bn5c_branch2b_2"
	      lr_mult: 0
        }
}

layer {
	bottom: "res5c_branch2b_i3"
	top: "res5c_branch2b_i3"
	name: "scale5c_branch2b_i3"
	type: "Scale"
	scale_param {
		bias_term: true
	}
	param {
		name: "scale5c_branch2b_0"
	      lr_mult: 0
	}
	param {
		name: "scale5c_branch2b_1"
	      lr_mult: 0
	}
}

layer {
	top: "res5c_branch2b_i3"
	bottom: "res5c_branch2b_i3"
	name: "res5c_branch2b_relu_i3"
	type: "ReLU"
}

layer {
	bottom: "res5c_branch2b_i3"
	top: "res5c_branch2c_i3"
	name: "res5c_branch2c_i3"
	type: "Convolution"
	param {
		name: "res5c_branch2c_0"
               lr_mult: 1
               decay_mult: 1
        }
        convolution_param {
		num_output: 2048
		kernel_size: 1
		pad: 0
		stride: 1
		bias_term: false
	}
}

layer {
	bottom: "res5c_branch2c_i3"
	top: "res5c_branch2c_i3"
	name: "bn5c_branch2c_i3"
	type: "BatchNorm"
	batch_norm_param {
		use_global_stats: true
	}
	param {
		name: "bn5c_branch2c_0"
	      lr_mult: 0
	}
	param {
		name: "bn5c_branch2c_1"
	      lr_mult: 0
        }
	param {
		name: "bn5c_branch2c_2"
	      lr_mult: 0
        }
}

layer {
	bottom: "res5c_branch2c_i3"
	top: "res5c_branch2c_i3"
	name: "scale5c_branch2c_i3"
	type: "Scale"
	scale_param {
		bias_term: true
	}
	param {
		name: "scale5c_branch2c_0"
	      lr_mult: 0
	}
	param {
		name: "scale5c_branch2c_1"
	      lr_mult: 0
	}
}

layer {
	bottom: "hyb_data_res5c_i3"
	bottom: "res5c_branch2c_i3"
	top: "res5c_i3"
	name: "res5c_i3"
	type: "Eltwise"
}

layer {
	bottom: "res5c_i3"
	top: "res5c_i3"
	name: "res5c_relu_i3"
	type: "ReLU"
}


############################### three classifiers ##########################
layer {
  name: "res5c_score150"
  type: "Convolution"
  bottom: "res5c"
  top: "res5c_score150"
  param {
    lr_mult: 10
    decay_mult: 1
  }
  param {
    lr_mult: 20
    decay_mult: 0
  }
  convolution_param {
    num_output: 150
    kernel_size: 1
    weight_filler {
      type: "xavier"
    }
    bias_filler {
      type: "constant"
      value: 0
    }
  }
}
layer {
  name: "res5c_score150_i2"
  type: "Convolution"
  bottom: "res5c_i2"
  top: "res5c_score150_i2"
  param {
    lr_mult: 10
    decay_mult: 1
  }
  param {
    lr_mult: 20
    decay_mult: 0
  }
  convolution_param {
    num_output: 150
    kernel_size: 1
    weight_filler {
      type: "xavier"
    }
    bias_filler {
      type: "constant"
      value: 0
    }
  }
}       
layer {
  name: "res5c_score150_i3"
  type: "Convolution"
  bottom: "res5c_i3"
  top: "res5c_score150_i3"
  param {
    lr_mult: 10
    decay_mult: 1
  }
  param {
    lr_mult: 20
    decay_mult: 0
  }
  convolution_param {
    num_output: 150
    kernel_size: 1
    weight_filler {
      type: "xavier"
    }
    bias_filler {
      type: "constant"
      value: 0
    }
  }
}
layer {
  name: "score150_sum"
  type: "Eltwise"
  bottom: "res5c_score150"
  bottom: "res5c_score150_i2"
  bottom: "res5c_score150_i3"
  top: "score150_sum"
  eltwise_param {
    operation: SUM
    coeff: 0.3
    coeff: 0.3
    coeff: 1
  }
}

layer {
  name: "score150_net"
  type: "Deconvolution"
  bottom: "score150_sum"
  top: "score150_net"
  param {
    lr_mult: 10
    decay_mult: 1
  }
  param {
    lr_mult: 20
    decay_mult: 0
  }
  convolution_param {
    num_output: 150
    kernel_size: 11
    stride: 8
    pad: 5
    weight_filler {
      type: "xavier"
    }
    bias_filler {
      type: "constant"
      value: 0
    }
  }
}

layer {
  name: "pred_mat"
  type: "MatWrite"
  bottom: "score150_net"
  mat_write_param {
    prefix: "mat_1/"
    source: "/home/jinxiaojie/dataset/ade20k/val_s.txt"
    strip: 0
    period: 1
  }
  include: { phase: TEST }
}

### loss and train ###
layer {
  name: "loss"
  type: "SoftmaxWithLoss"
  bottom: "score150_net"
  bottom: "label"
  top: "loss"
  loss_param {
    normalize: false
    ignore_label: 255
  }
  include { phase: TRAIN }
}

layer {
  name: "accuracy_PA"
  type: "SegAccuracy"
  bottom: "score150_net"
  bottom: "label"
  top: "accuracy"
  seg_accuracy_param {
    ignore_label: 255
#    metric: PixelAccuracy
  }
  include { phase: TEST} 
}
layer {
  name: "silence"
  type: "Silence"
  bottom: "data_dim"
}
